init_mnist_model.pt (torch_old, 447167 bytes, 6 tensors)

weight f4 [128, 784]
000000 66 50 fd bb 4c 09 87 3c f8 0f fa 3c ab 26 a5 bc
       -0.0077305315 0.016483925 0.030525193 -0.02016004
000010 5c d6 81 3b 36 84 32 bc 9b 32 d9 3c b8 44 5e 3c
       0.003962321 -0.010895779 0.026513388 0.0135661885
000020 a4 15 7d 3b 38 cf 10 3c 39 cc 1b bc 67 0b f5 bc
       0.0038617635 0.008838467 -0.00950914 -0.029912664
000030 f1 cb 86 3c 48 44 85 3c d7 5e 72 bc c5 bc d9 bc
       0.016454669 0.01626791 -0.014793119 -0.02657927
000040 64 6a fa 3b b9 34 b0 bc ab 38 fc 3c ea 98 09 3d
       0.0076420773 -0.021509515 0.03078874 0.033593096
000050 0c 60 0f 3c 5a 59 01 3d 20 40 92 bc d9 ab 1b 3b
       0.008750927 0.031579353 -0.017852843 0.0023753552
000060 40 b0 7d 3c c3 be d9 3c 98 8e 1a 3c 0a f6 00 bd
       0.015483916 0.02658022 0.009433411 -0.03148464
000070 e0 be 5f bc 87 98 03 3d d0 cd c7 bc 4a 76 44 bc
       -0.013656348 0.032127883 -0.024390131 -0.011991093
000080 e0 13 90 3c 6c a7 64 bc 14 21 0b 3d 4f aa eb 3b
       0.017587602 -0.013955932 0.033967093 0.007191933
000090 1a 76 81 bc 00 cf 09 3c 6f 50 7b 3c d9 3f 12 bd
       -0.015803386 0.008411169 0.015339001 -0.03570542
0000a0 2a 00 5f 3b 91 0c d9 3b 53 55 c9 3c 73 6d d5 bb
       0.0034027197 0.0066238125 0.024576819 -0.0065132915
0000b0 be f4 43 bc 52 c1 05 bd 05 25 03 3d bc be cd 3b
       -0.011960207 -0.032655068 0.032017726 0.006278841
0000c0 d8 06 52 3a e0 e9 01 3c 70 da da 3c bc dd 26 bc
       0.0008011884 0.007929295 0.026715487 -0.0101847015
0000d0 fc ff 31 bb ce 81 f4 bc 62 88 a2 bc d5 47 c3 3c
       -0.0027160635 -0.029847052 -0.019840423 0.023837963
0000e0 00 ba 5e bb 20 08 1d 3c 6a 93 99 3c c6 93 5b 3b
       -0.0033985376 0.009584457 0.01874705 0.0033504828
0000f0 62 94 f3 3b 9f a4 29 3c 2b 4e ba bc 6c 24 9a bb
       0.00743346 0.01035419 -0.022742352 -0.004704049
000100 09 a8 ef 3b a2 73 2d 3c 0a 02 2a bc 5c e2 8e 3c
       0.0073137325 0.010586651 -0.010376463 0.017441921
000110 44 5c 25 bc 3d 89 85 bc 80 df 04 bd 18 a1 06 3b
       -0.010092799 -0.016300792 -0.03243971 0.0020542797
000120 21 f1 cd 3c 5e 9f d3 3c aa bb fe 3c a1 d4 54 b8
       0.025139393 0.025832828 0.031095345 -5.0742765e-05
000130 6d 16 8b bc a7 b5 e8 3c 46 4e 04 3d 80 9a 3d 3b
       -0.016978467 0.028406931 0.03230121 0.00289312
000140 54 9d a0 3b b9 a6 ca 3c 81 8c 33 b8 a0 74 4e 3c
       0.0049015675 0.024737703 -4.280778e-05 0.012601048
000150 58 42 31 3c 09 b2 cd bc ef 5a a8 bc 67 7e 46 3c
       0.01081904 -0.025109308 -0.020551173 0.012115098
000160 cb 7a 03 3c 67 55 c0 bb 99 08 00 3d 52 2f 5d bc
       0.008024882 -0.0058695558 0.0312582 -0.013500052
000170 2d 99 be bc 81 b3 fb 3b d0 e3 5d 3c 87 70 0e 3c
       -0.0232664 0.0076813106 0.013543084 0.008693821
000180 ef d6 04 bd 56 ab 7f 3c c9 a5 db bc ef d7 20 3d
       -0.03243154 0.0156048145 -0.026812451 0.03926843
000190 8e 9a 03 3d 2e 06 00 3d cf d9 d2 3c 11 5f 98 bc
       0.032129817 0.031255893 0.025738625 -0.018600019
0001a0 03 28 1f 3c a0 a6 d1 3c 68 b0 48 bb 43 50 ef 3b
       0.009714129 0.025592148 -0.0030622724 0.007303269
0001b0 ad 9b fc 3c be 9b 60 bc 9a 86 08 3d 45 71 b1 3c
       0.03083595 -0.013709007 0.03333149 0.021660456
0001c0 9b 76 df 3b 18 4e 50 bb a2 36 ae 3c 63 dc 92 bc
       0.006819559 -0.0031784829 0.021266285 -0.017927354
0001d0 e2 e0 c8 bc 51 8e a5 bb b9 95 cd bc 76 42 e5 bc
       -0.024521295 -0.005052366 -0.025095807 -0.027985793
0001e0 ab 80 5a 3c 11 f7 50 ba e9 bb be 3c c0 e0 43 3b
       0.013336341 -0.0007971386 0.023282962 0.00298886
0001f0 6c 5e 33 3a ab 25 fd 3c 70 f9 8d 3c 72 60 7c 3d
       0.0006842378 0.03090175 0.017330855 0.061615415
000200 7f db 54 bc f4 1c 3b bd e3 45 3d bb cd 81 52 bd
       -0.012991785 -0.04568191 -0.0028880767 -0.05139332
000210 39 f9 4c bd 59 5f 13 bd d5 c9 e8 bc 63 f2 c2 bc
       -0.050042365 -0.035979602 -0.028416554 -0.02379722
000220 e8 7e 5b 3c 8b 65 bc 3c 54 f1 0f bc eb 60 ff bc
       0.013396956 0.022997638 -0.008785564 -0.031174144
000230 4b 0a 46 3b 91 be cd 3c a5 2e ae 3c 83 1a 98 3c
       0.0030218537 0.025115283 0.021262476 0.01856733
000240 70 5e e9 3c 1a 53 89 bc e7 6b 35 3d 0d 9f 91 bc
       0.028487414 -0.016763259 0.044292357 -0.017776037
000250 c6 01 b5 3c 10 e0 9e bc 35 47 18 3d c8 13 fc 3c
       0.022095572 -0.01939395 0.037177283 0.030771151
000260 51 be 2b 3c 1e 8f 8f bc ff e8 93 b7 78 90 37 3d
       0.010482387 -0.017524298 -1.7632263e-05 0.04481551
000270 13 49 00 3d 4b be 1c 3c 90 cd fa bc e0 d2 fa 3a
       0.03131969 0.009566854 -0.030615598 0.0019136332
000280 40 16 54 bd 70 c8 02 bd 27 16 f1 bc 94 fb a2 3c
       -0.05177903 -0.031929433 -0.029429508 0.019895352
000290 c9 57 52 3c 79 15 02 3d 7d b2 cd 3a b1 bf e0 3c
       0.012838312 0.03175876 0.0015693452 0.027435156
0002a0 a7 7c d9 3c 8a 1f e4 3b 45 c5 c5 3c 21 3b 9b bc
       0.026548697 0.0069617676 0.024141917 -0.018949093
0002b0 b1 6f 82 3c b4 47 c7 bc 9b 17 94 3b 9a a8 cf 3b
       0.0159224 -0.024326183 0.0045194156 0.0063372375
0002c0 28 1a be 3b 06 44 db 3c bc ed dc 3b 7f 5d 28 bc
       0.005801458 0.026765835 0.0067422073 -0.010276197
0002d0 27 d1 b5 bc 8a b3 42 3c 48 27 35 bd ee de 9c 3a
       -0.022194458 0.011883626 -0.044226915 0.0011968294
0002e0 66 46 8a bb 97 b9 e1 3a 6c 1b c3 bc 9a 01 ab ba
       -0.004219818 0.0017221448 -0.023816787 -0.0013046742
0002f0 83 a8 67 3c 77 cf 4c bc 28 ff 45 bc b1 55 ab 3b
       0.014139297 -0.012500635 -0.01208476 0.005228721
000300 1b 45 0f 3d f5 6e 83 bb 4b af a3 bc 24 53 da 3c
       0.034978013 -0.00401103 -0.019981047 0.026650973
000310 54 58 1c bb 21 99 c3 3c bd 03 02 3d 1e 50 1a ba
       -0.0023856359 0.023876728 0.031741846 -0.0005886572
000320 cb 37 b5 3c a8 a9 b6 3c aa 89 21 bd c7 9f 11 bd
       0.02212133 0.022297695 -0.039437927 -0.035552766
000330 53 79 59 bb 55 ee 71 bc b0 36 40 3d 97 de 4e bc
       -0.0033183887 -0.014766295 0.046927154 -0.012626312
000340 aa 01 56 3c 65 1c f4 bc 21 13 f8 bc 4e 0b bb 3c
       0.01306192 -0.029798696 -0.030282559 0.022832539
000350 9a d6 13 bd 46 e7 96 bc 3e eb b5 bc e1 34 00 bd
       -0.036093332 -0.018420827 -0.022206899 -0.03130043
000360 45 31 a5 bc b4 8e 81 bc 2a 81 04 3d 92 66 3e bc
       -0.020165095 -0.015815116 0.032349743 -0.011621134
000370 0b c2 a7 bc ac 78 2d bc c2 85 37 3a 6a 07 e7 bc
       -0.02047827 -0.010587852 0.00070008275 -0.028201777
000380 4d c9 09 bd 10 39 0c bc 2a 46 c7 bc 40 fd c1 3c
       -0.03363924 -0.008558527 -0.024325449 0.02368033
000390 94 0b 72 bc e1 e8 94 3c 3f 86 38 bd ef b5 d5 3c
       -0.014773268 0.018177452 -0.045049902 0.02608773
0003a0 92 0d 09 bb b0 b2 d3 3c fe 68 bd ba 33 a7 08 bd
       -0.002091263 0.02584204 -0.0014450846 -0.03336258
0003b0 72 03 7e bc 78 43 25 bd 7a 8c 95 3c b2 55 a6 3c
       -0.015503751 -0.040347546 0.018255461 0.020304535
0003c0 d3 80 95 bc a4 9c 88 bc f0 bb 80 bd 37 e0 32 bb
       -0.018249905 -0.016676255 -0.06285846 -0.0027294287
0003d0 34 be 3c bd 3f 64 68 bc 06 dd 08 3b 76 72 b2 bb
       -0.04607983 -0.014184057 0.0020883693 -0.0054457737
0003e0 0f a4 9d bc 27 f4 73 3c d6 6d f5 bc 29 51 fd 3a
       -0.019243268 0.014889753 -0.0299596 0.0019326556
0003f0 f9 aa a7 3c 99 cc 7c 3c 3a b2 c2 bc 3f d9 ee bc
       0.020467268 0.015429639 -0.023766626 -0.029156325

bias f4 [128]
000000 13 6b 0b bd d1 a2 15 bc 5a 29 c9 3c 0d 5f 0d bd
       -0.03403766 -0.009133057 0.02455585 -0.034514476
000010 78 99 b2 bc 43 a1 cc bc ee f3 0f 3c d3 7c fd bc
       -0.021801695 -0.02497924 0.008786185 -0.03094331
000020 dc 56 e8 bc db f9 ed 3b aa bc c8 bc d8 45 03 bd
       -0.02836173 0.007262451 -0.024504025 -0.03204903
000030 62 a8 70 3c 52 ba 72 3c 06 1e 8f 3c cb fa 8c 3c
       0.014688583 0.01481493 0.017470371 0.017209431
000040 00 25 79 3b e6 38 98 3c f9 4d ae bb 6b 98 54 bc
       0.0038016438 0.018581819 -0.0053193537 -0.012975792
000050 70 d2 4f bc df 7c a8 3c 82 78 10 3d bd 79 41 3c
       -0.01268445 0.020567356 0.035271175 0.01180881
000060 ef 67 8d bb d1 8e e5 bc 81 50 ea bb fb 5c b6 3b
       -0.0043153684 -0.028022202 -0.00715071 0.0055652834
000070 e5 58 06 3c 08 ef f8 bc 37 14 db bc c7 79 81 bc
       0.008199905 -0.030387416 -0.026743038 -0.015805138
000080 2e 74 0f bd 01 cd ac bc af 01 3d 3c 59 07 56 bc
       -0.035022907 -0.021093847 0.011536046 -0.013063275
000090 83 73 8b bc 16 d0 d8 bc 4d 0f 00 bd e0 82 6d 3c
       -0.017022854 -0.02646641 -0.031264592 0.014496535
0000a0 8a 94 45 bb 52 98 d0 bc 00 61 f6 3c 4e 73 11 3d
       -0.003014835 -0.025463257 0.03007555 0.035510354
0000b0 27 81 4e 3c 08 a4 54 bc 1d de b7 bc 9b f4 90 bc
       0.0126040345 -0.012978561 -0.022444779 -0.017694762
0000c0 93 9c 08 bd 21 d9 1a bc ef d3 a9 bc 7b 41 87 bc
       -0.033352446 -0.009451182 -0.02073094 -0.016510716
0000d0 0d db a1 3c cc 89 c7 3a 19 c2 12 3b 23 18 3f bb
       0.019757772 0.0015223562 0.0022393523 -0.0029158674
0000e0 03 4c 12 bb ba e8 0b 3b 71 bc 4a 3c 17 64 a9 3c
       -0.0022323139 0.0021348433 0.0123740295 0.02067761
0000f0 e0 52 8d 3c 44 d7 df bc 0f e3 4b bc f3 c3 58 3b
       0.017251432 -0.027324326 -0.012444272 0.003307578
000100 3b 9a 6b 3c 58 14 80 3c a3 1c bb 3c f1 2c c2 bc
       0.014380033 0.0156347 0.022840803 -0.02370307
000110 9c f4 d5 bc 4b 21 d9 bc a0 4b 13 bd 85 5b b5 3c
       -0.026117615 -0.026505133 -0.035960793 0.022138366
000120 e3 e1 3e bb 61 2c b2 bc ce 16 da bc df 16 d3 3c
       -0.0029126338 -0.021749677 -0.026622202 0.025767742
000130 6e 36 99 bc 17 8d d3 3c eb 7f 31 bc 7b f4 bd 3c
       -0.018702712 0.025824113 -0.010833721 0.023187866
000140 58 05 07 3d 22 be 6b 3c e6 22 da 3b 23 ab 10 3c
       0.03296408 0.014388593 0.0066569922 0.008829865
000150 b9 33 f0 bc c6 43 e3 3c b2 8e af 3b 54 c3 a1 3c
       -0.029321538 0.027742278 0.005357587 0.01974646
000160 1e e9 de 3c 6a d2 03 bd 32 68 be 3c 2b eb d3 bc
       0.027210768 -0.03218309 0.023243044 -0.025868973
000170 18 91 0c 3d c5 0a 87 bc e6 b7 0e bc 3e 23 83 3c
       0.03431806 -0.016484628 -0.008710837 0.016008016
000180 68 bb b2 bc 3f e2 91 3b b8 38 0d bc 2d c5 84 3c
       -0.021817878 0.0044520195 -0.00861948 0.016207302
000190 f1 47 df 3c ee d4 0e 3c 6a 41 a4 bc b7 74 ac bc
       0.027255984 0.008717759 -0.020050723 -0.021051748
0001a0 5d 5c 9d 3c b4 83 82 38 83 cc f1 3c c0 5e d7 3c
       0.019209081 6.223415e-05 0.029516464 0.026290298
0001b0 55 03 d8 3b 5b 50 7f 3c b2 45 ec bc 05 2c 0c 3d
       0.006592194 0.015583123 -0.028841827 0.034221668
0001c0 e8 07 cd 3c af cc b7 3c e4 86 cf bc ba 1d 82 3b
       0.025028184 0.022436468 -0.025332876 0.003970829
0001d0 b0 9d df 3c b5 d9 e1 bc 96 08 84 3b ba 75 88 bc
       0.027296871 -0.027569631 0.004029344 -0.016657699
0001e0 8b 6e 41 bd ee 6d 80 3b 55 29 fd bb ef 75 21 bc
       -0.047224563 0.0039193546 -0.0077258744 -0.009854778
0001f0 1d b5 82 3c be d7 16 bd c0 b8 33 3a 70 26 71 3c
       0.015955502 -0.03682684 0.0006855838 0.014718637

weight f4 [64, 128]
000000 a1 78 ea 3d 90 ae 3d 3d 6a 1f ec bd 36 ed 83 3c
       0.114487894 0.046309054 -0.11529429 0.016104322
000010 eb 5a 5d bc 1a a7 59 3e 76 9b 88 3e 65 4f 79 3e
       -0.013510446 0.2125515 0.26681107 0.24346693
000020 64 f0 db bd 49 e2 64 bc 6d 3a fb bd 42 3c 21 bd
       -0.1073921 -0.013969966 -0.12267003 -0.039364107
000030 4b 5b 80 bd a7 ad ea 3c 3d c3 02 bd 09 46 d7 bc
       -0.06267413 0.028647257 -0.031924475 -0.026278513
000040 70 72 9f 3d 1e fb 58 bd ca 6b 49 bd 56 df bc 3d
       0.07785499 -0.05297386 -0.04917506 0.092222854
000050 8e d4 2b 3e 37 2b 6c 3d eb f5 d1 3d 66 14 80 bd
       0.16780302 0.0576584 0.10251983 -0.06253891
000060 c5 fb 8c be 47 d6 20 3e 0f b4 a4 bd a1 8a e3 bc
       -0.27535835 0.1570674 -0.08042156 -0.027776064
000070 f4 bd 18 3d c7 b1 71 bc 29 ef 83 3e 3f 9f 6c 3c
       0.03729053 -0.014751858 0.25768402 0.014442264
000080 0b 87 d7 bd b8 60 19 be 52 84 4b 3d 37 02 59 be
       -0.10523804 -0.14978302 0.049686737 -0.21192251
000090 e8 e3 96 3d 18 bf ea 3d de 78 fd 3a 37 eb 38 3e
       0.073676884 0.114622295 0.0019338389 0.18058477
0000a0 2d b9 88 bd 7f 80 7b 3d bd b9 d6 3b 2a 78 04 be
       -0.066759445 0.06140184 0.0065529034 -0.12936464
0000b0 33 3b d0 bd a3 d0 e3 3d ff 97 d9 3d e7 16 33 3c
       -0.10167541 0.11123779 0.10624694 0.010930753
0000c0 d9 d2 0b bd d4 0b 9d 3d df f3 a5 bd f8 cc 55 3d
       -0.034136627 0.07668272 -0.08103155 0.052197427
0000d0 5c c1 36 bd 80 4e 08 3e 76 47 02 3e 7b d1 e6 3d
       -0.044617996 0.13311195 0.12722573 0.11270424
0000e0 ac ea 26 3d 30 85 05 3d 8e b5 51 be dc ff d8 3c
       0.040751144 0.03259772 -0.20479414 0.02648919
0000f0 7a 03 8a 3e 6f ac d6 bd dd f3 c9 bc ae fb a3 3d
       0.26955777 -0.10482108 -0.024652416 0.080069885
000100 97 37 89 bc 11 55 f7 3c 24 a5 2c 3c 4c 9b 36 3d
       -0.01675014 0.03019193 0.0105374195 0.044581696
000110 d6 a0 09 bd 69 c5 d9 3d 16 d6 16 3d f1 9e 84 be
       -0.03360065 0.10633356 0.036825262 -0.25902513
000120 25 a6 ac bd 86 6b 1a bd f2 7f 95 be 4b e9 c1 3d
       -0.08430127 -0.0377002 -0.29199177 0.09468325
000130 6b 72 76 3e 37 d0 6d 3d dd 79 4b bd c2 9e 99 3d
       0.24067084 0.058059897 -0.049676765 0.07500984
000140 35 f3 a9 bd 61 87 1b bd 1d e3 a6 be 6c db 9f bd
       -0.08298341 -0.037970904 -0.3259515 -0.07805523
000150 6f 2c 20 3e 85 ef c1 3d 96 55 9e 3c a4 7e 27 3c
       0.1564195 0.09469513 0.01932792 0.010223065
000160 51 ff b4 3d c9 ab a0 bd 34 9f 25 3e a7 cc 8a be
       0.0883776 -0.078452654 0.16174012 -0.27109262
000170 a5 dc d5 3b 39 ab cd 3c 60 63 9c 3d 56 57 a4 bd
       0.006526547 0.02510606 0.07636142 -0.080244705
000180 ba 87 04 3e e1 43 c0 3b e1 b2 e9 bd 8c 5d d4 3d
       0.129424 0.005867467 -0.114110716 0.10369405
000190 c3 52 3d 3d ed e5 aa 3d ce 5b a3 be 12 9e cd bd
       0.046221506 0.08344636 -0.3190598 -0.10039915
0001a0 cd 6f a3 3c d1 e6 b8 3d 14 34 b1 3d 8b cc 9a bd
       0.019950772 0.090284 0.08652511 -0.07558545
0001b0 23 00 00 3d 8f a2 9d bd 0b 26 0a 3e fc d6 3c 3e
       0.03125013 -0.07697021 0.13491075 0.18441385
0001c0 c9 b9 0f be 6f b8 99 3c c3 5a b4 3d c9 cc b5 bc
       -0.14035715 0.018764703 0.08806374 -0.022192376
0001d0 30 0f 95 3c dd 04 65 3d 23 ae 9e 3d da 82 5a 3e
       0.018195719 0.05591284 0.07748058 0.21338978
0001e0 0e a9 4a 3c f7 aa d5 3c 0c 91 80 3e b1 e4 9e 3c
       0.012369407 0.026082499 0.25110662 0.019396158
0001f0 01 3b 04 be 17 f6 0f bd 2d 78 7a bc df e4 b0 3c
       -0.12913133 -0.0351468 -0.015287441 0.02159351
000200 00 17 15 3e 1d 49 8b 3e 4e 9c e4 bd ca ca 34 3e
       0.14559555 0.27204219 -0.11162625 0.17655483
000210 b3 cb 8d 3d db ff 9a 3e d9 58 26 be 28 35 15 3e
       0.06923618 0.30273327 -0.1624483 0.14571059
000220 c4 02 9a bd e6 d2 68 be 0d 72 40 bd 77 3d 09 3e
       -0.07520059 -0.22736701 -0.046983767 0.13402353
000230 2c 6f 0d 3c 74 bd 08 3d d1 68 c9 3a d6 8f 30 be
       0.0086324625 0.0333838 0.0015366321 -0.17242369
000240 53 5e 20 3e b9 36 95 3e 3c 7f 8f bc b8 ec 15 3e
       0.15660982 0.29143313 -0.017516725 0.14641082
000250 d0 5d aa bd b5 65 5d 3d e6 05 d9 3e bb e1 1f 3e
       -0.083186746 0.054052074 0.42387313 0.15613453
000260 17 b3 98 be 35 c7 5f 3e 11 d8 f2 3c 33 26 45 3d
       -0.29824135 0.21853335 0.029644044 0.048132133
000270 b9 f8 3a bd c9 2b 2a 3e f3 ff 8c 3c 86 8a 9d be
       -0.045647357 0.16618265 0.01721189 -0.30769747
000280 17 0c e6 3c 31 47 2e be a2 44 27 3d 1b 57 e9 bc
       0.028081937 -0.17019345 0.040836938 -0.028483918
000290 1d 9b dd ba e9 9f 5e bd a6 ed be bb 56 d2 9f 3e
       -0.0016907189 -0.05435172 -0.0058266697 0.3121516
0002a0 de 2d 25 3c 6b d5 92 bb 23 ce 8e bd ee 22 0d be
       0.010081736 -0.004481008 -0.06972911 -0.13782856
0002b0 2f 8e 2d be c7 73 90 be 3f 8e 54 bd 9e f0 20 3e
       -0.1694877 -0.2821333 -0.05189347 0.15716788
0002c0 99 51 9a bc 79 3f 13 3d 66 f2 9f 3d 35 63 3a be
       -0.018837737 0.035949204 0.07809906 -0.18201907
0002d0 19 3e 33 bd 6d 87 c1 bd 6a 64 68 bc 9d 64 04 3e
       -0.043760393 -0.094496585 -0.014184097 0.12929006
0002e0 e5 ac 27 bd 2e a8 9e bd 0d a4 95 3d 41 62 50 be
       -0.04093637 -0.077469215 0.07306681 -0.20349981
0002f0 7d f1 1d 3e 4f e5 e5 bc 41 69 3f bd f1 0a 99 3d
       0.15424152 -0.028063444 -0.046731237 0.0747279
000300 51 d5 11 be 8c 18 a3 3e ea 69 2e be f3 c2 15 3c
       -0.1424153 0.31854665 -0.1703259 0.009140718
000310 cf e3 1e bd 81 c0 b9 bd d1 04 1e 3d 67 72 45 be
       -0.038791474 -0.0906992 0.038578812 -0.19281922
000320 e4 15 8c 3e 06 cb 28 be 6f 68 e8 bd 34 55 8c bd
       0.2736045 -0.16483697 -0.11348044 -0.06852189
000330 af 3e b2 3c 84 d7 9e be a1 ef b9 3c 2b 2e 44 3e
       0.021758405 -0.310238 0.022697272 0.19158237
000340 55 91 30 bc 86 8c 57 be c6 13 36 bd 34 fd c8 bc
       -0.010776837 -0.21049699 -0.04445245 -0.0245348
000350 3d 72 89 bd 3f eb 15 bd a7 04 85 3e 18 c2 13 3e
       -0.06711242 -0.0366013 0.25980112 0.1442951
000360 2e ca 50 be fb cc 00 be 96 c8 cd 3c 94 2c 58 3e
       -0.20389625 -0.12578194 0.02512006 0.21110755
000370 00 a7 68 bc bc 96 35 bd cb bd ef 3e bd 8d f4 3c
       -0.014199972 -0.044333205 0.46824488 0.029852742
000380 73 11 20 bd 51 79 bb 3d d3 89 61 3b 87 58 0e bd
       -0.03907914 0.09153999 0.0034414425 -0.034752395
000390 96 de ad 3c d4 99 b3 be 21 f4 83 bd 8f 2a 0e be
       0.021224301 -0.350783 -0.06443048 -0.13883422
0003a0 69 77 91 3e 51 25 a8 3d 56 a6 b6 bc 19 45 27 3d
       0.28411415 0.082102425 -0.022296112 0.04083738
0003b0 cc e8 f2 bc 01 5f f9 3c fd 7c 5d bc 19 b8 7d bd
       -0.029652022 0.03044081 -0.013518569 -0.061943147
0003c0 e5 e7 03 bc 75 8e 41 be 0e cf 64 3e 94 ed 40 3d
       -0.008050893 -0.18902 0.2234461 0.047101572
0003d0 c7 0f 63 3d fb cb fd 3c 63 14 27 be 0e 52 57 3e
       0.05543497 0.030981055 -0.1631637 0.21027395
0003e0 58 74 43 be e5 27 ff 3d 84 9c cb 3d 40 dd b1 3d
       -0.1908735 0.12458781 0.09941962 0.08684778
0003f0 48 15 0a be fb ab aa 3d 9e 2a 97 3d 8f c1 fe bb
       -0.1348468 0.08333584 0.073811755 -0.007774539

bias f4 [64]
000000 d8 7b a8 3d cc 00 74 bd cc c6 ba 3d 80 ef c6 bd
       0.08226746 -0.059571072 0.09119949 -0.0971365
000010 87 bf 53 3c 68 3b 09 3d 3f 44 1e 3d ac bd ad 3d
       0.012924082 0.03350392 0.038639303 0.08483443
000020 7f d9 21 bd d4 d5 6e bd f9 a7 0f bd cb 42 ca 3c
       -0.03951406 -0.05830939 -0.0350723 0.024690052
000030 e8 7d 97 bd d4 d3 81 3d 20 7d 95 3d e3 90 40 bc
       -0.073970616 0.06339231 0.07299256 -0.011753294
000040 e6 76 95 bd 9a 88 33 3d aa 44 00 bd 3d bf eb bc
       -0.07298069 0.043831445 -0.031315483 -0.028777713
000050 aa cd 83 bc 27 31 03 bc 28 13 8a bd 15 80 42 bd
       -0.01608928 -0.008007324 -0.06741935 -0.04748543
000060 bf a9 86 3d cc 06 a2 3c 08 b9 9e 3d 78 93 12 bd
       0.06575345 0.019778632 0.07750136 -0.03578517
000070 db 54 dd bb 33 c5 5e 3c c0 d9 ec 3c 9c 0a 92 bd
       -0.0067545003 0.013596821 0.028912425 -0.0713093
000080 b8 ae 97 bd e1 0b c3 bd 9d cc af bd d7 54 93 3c
       -0.07406372 -0.0952375 -0.08583949 0.01798479
000090 70 58 ff bc 7a d2 03 3c 73 80 94 bd b9 46 96 bd
       -0.0311701 0.008045787 -0.07251062 -0.07337708
0000a0 a6 11 2f bd 75 12 17 bd ba d9 88 bd 68 92 92 3d
       -0.04274144 -0.036882836 -0.06682153 0.07156831
0000b0 46 c1 ba 3d 88 cf f0 3d d2 99 ae bd 00 e5 85 3d
       0.09118895 0.117583334 -0.08525433 0.06537819
0000c0 c8 18 f2 ba 11 1e 6c bd d4 c0 b2 bb 40 36 06 3d
       -0.001847052 -0.05764586 -0.005455116 0.03276658
0000d0 82 6e ad 3c c7 97 13 bb 68 a3 af bc 40 fb 83 3c
       0.021170858 -0.0022520886 -0.021440223 0.016111016
0000e0 27 65 00 3d 2d 5b c0 3d c2 52 a7 3d 64 cc 80 bd
       0.031346466 0.093923904 0.08170082 -0.062889844
0000f0 1d 31 aa bc bc 4c 36 3c fb bd ed bc 17 97 a5 3d
       -0.020775372 0.011126693 -0.029021254 0.08085459

weight f4 [10, 64]
000000 2a 7e 94 bd 8f d0 d4 be 97 1e 6f be c7 84 4c bd
       -0.072506264 -0.41565368 -0.23351513 -0.049931314
000010 3a e5 f9 3d 8c 35 55 3f 17 24 c8 be 4f f0 af 3e
       0.122019246 0.8328483 -0.39090034 0.34363028
000020 a3 5e 10 be 68 59 9f bd db 36 f8 3d 8f d5 2a be
       -0.14098601 -0.07780725 0.12119838 -0.16683029
000030 3b 80 05 be 27 cf 04 3e 1c 30 13 bd ef 9e 89 be
       -0.13037197 0.12969647 -0.035934553 -0.2687907
000040 d4 52 49 3d cf 08 0b bd c2 5a 96 bd ba 0f 30 bd
       0.049151257 -0.033943947 -0.073415294 -0.042983748
000050 07 f0 a0 be 39 e2 2a be a0 a1 7b be 21 a6 fd be
       -0.31433126 -0.1668786 -0.24573374 -0.4954081
000060 d4 31 68 3f 51 dc 8f 3d 85 d5 cf bd 2b 58 d6 be
       0.9070103 0.07024444 -0.101481475 -0.41864142
000070 02 f0 a9 bc b4 7a 66 be 58 62 2c bf 49 a0 e1 be
       -0.020744327 -0.22507745 -0.6733756 -0.440676
000080 a3 87 a0 3e 3a 3f 92 3d 09 42 19 be 5f 17 76 bd
       0.31353483 0.07140966 -0.14966597 -0.060080882
000090 44 84 3a bf ff cb 37 3e 93 83 66 bd 26 13 29 bd
       -0.7285807 0.17948912 -0.056277823 -0.041278027
0000a0 62 41 bf 3e 66 20 93 bc 2f e1 77 3e 9e 42 5f 3e
       0.3735457 -0.017959785 0.24206994 0.21802756
0000b0 39 be 8b be f4 f2 c4 be 93 d5 21 be d4 b4 05 3e
       -0.27293566 -0.3846661 -0.15804128 0.13057262
0000c0 89 0f 38 3e e3 ef ab bd 60 34 6e bd 0a bc f3 3d
       0.17974676 -0.08395364 -0.058155417 0.119011
0000d0 fd c8 f6 3c 39 ac a4 bc 99 cf a7 bd 04 5b 55 be
       0.030125136 -0.020101653 -0.08193893 -0.20835501
0000e0 cb f9 6f 3d 27 6a ae 3d 98 17 f1 3e d6 49 51 be
       0.05858783 0.08516341 0.47088313 -0.20438322
0000f0 09 0e 0c 3d 91 06 4b bb 61 c9 9e 3e 36 f1 07 3d
       0.034193072 -0.0030979256 0.31013015 0.03318902
000100 99 42 72 3e 51 0e e3 3e bd 05 a7 be 57 46 cd bd
       0.23658217 0.4434686 -0.32621565 -0.10023182
000110 a3 15 ec 3e 5e 7b 1c bf a6 f1 96 be 98 17 7b be
       0.46110258 -0.61125743 -0.29481238 -0.24520719
000120 7e 9b 4f 3e c4 41 1f bb c4 37 ac be 41 b8 1b 3e
       0.2027416 -0.0024300674 -0.33636296 0.15207006
000130 41 e6 63 be 6f 27 3a bf d2 7c da bd 11 f1 b6 3d
       -0.22255804 -0.7271642 -0.10668339 0.089326985
000140 6b cc 27 3e 8e 50 88 3e 6b 88 9f 3e ec 24 c8 3d
       0.16386573 0.26623958 0.31158766 0.09772667
000150 a4 40 bc be 9e 2b 92 3e c5 6a 5f 3e e3 0b 70 3e
       -0.36768067 0.28548902 0.21818073 0.23442034
000160 d5 9e 89 be d6 94 86 3d 8b 6d ef 3e df 1e 18 bf
       -0.26878992 0.06571357 0.46763262 -0.59422106
000170 0f 47 1b bc 28 cd 94 3e ce 52 de 3e ed 97 ad 3e
       -0.009477391 0.29062772 0.4342255 0.33904973
000180 86 78 16 3e 35 fc b1 3e ec 2d b0 3d 53 fe 8c be
       0.14694414 0.3476273 0.08602509 -0.27537784
000190 29 c7 57 3e 0d cb 8c 3d ff 58 83 3d c3 0c ac bd
       0.21072067 0.06874666 0.06413459 -0.084008716
0001a0 7e 7c 6a be 4c 8f ed bc 4e d6 3f 3c 36 20 02 3f
       -0.22899053 -0.028998993 0.011708809 0.508304
0001b0 d4 dd 93 3e bf 52 2e 3e 91 29 8b 3e 65 4a 05 3f
       0.2888018 0.17023753 0.2718015 0.5206664
0001c0 c2 56 2e 3f 96 ce 30 3e 62 35 97 3e f4 29 b3 3e
       0.6810113 0.17266306 0.29532915 0.34992945
0001d0 41 a6 bc 3d 24 58 2f 3e a1 a2 22 3e 6e 62 f9 3e
       0.09211398 0.17123467 0.1588235 0.48707908
0001e0 0a 04 dd bd 59 b5 45 3e f6 94 ca be 19 1b d7 be
       -0.10791786 0.1930746 -0.39566773 -0.4201286
0001f0 2d 1a 23 bf e1 f7 29 3e 07 cc bc be e6 c1 aa bd
       -0.63711816 0.16598465 -0.3687441 -0.083377644
000200 f2 59 2b bf 60 65 28 bf 06 a1 82 3e aa e8 32 be
       -0.6693412 -0.65779686 0.25513476 -0.17471567
000210 2f d3 82 3e fa f3 d1 be df ca 8f be 12 7a 25 3f
       0.25551745 -0.41006452 -0.28084466 0.6463939
000220 1c fc d5 3e 2b fa 99 bb 46 80 1b 3f 83 bc c8 3d
       0.41793907 -0.004699012 0.60742605 0.09801581
000230 fe 97 f4 bd 4a 52 f4 3e f5 92 eb 3e 9f 83 17 3d
       -0.11943053 0.47719032 0.46010557 0.036990758
000240 83 2e e7 bc 89 f3 eb bd 10 71 cc be ad 0b c4 bd
       -0.02822042 -0.1152106 -0.3993001 -0.095725395
000250 64 74 a1 bc 8d 28 86 be 53 05 55 3e ea 14 5b bd
       -0.01970882 -0.26202813 0.20802812 -0.053486742
000260 6c d5 ea bd 59 8d a5 bd b5 b9 03 3b 07 c6 8d be
       -0.11466488 -0.080836006 0.0020099704 -0.27690145
000270 44 61 b4 3d db c0 29 3e f9 96 3d 3f aa 4b 12 be
       0.088076144 0.16577475 0.7405849 -0.14286676
000280 b4 43 3e 3e ef 1b e1 be 37 c2 b9 3d e5 a2 26 3e
       0.18580514 -0.43966624 0.09070247 0.16273077
000290 29 4a 96 be 63 c4 64 bd 3c a5 e5 3e f6 c7 92 bc
       -0.29353455 -0.05585135 0.44852626 -0.017917614
0002a0 6d dc 9c be f7 14 42 bd 01 32 c8 3e c5 98 dc be
       -0.30636922 -0.047383275 0.3910065 -0.43085304
0002b0 9a b5 3a 3f c2 1f 82 be 96 ee a1 be 95 db 91 be
       0.7293335 -0.25414854 -0.3162734 -0.2848784
0002c0 66 73 d8 3e 6f c9 ab be c9 d1 ee 3e 3f b3 25 be
       0.42275542 -0.3355212 0.46644428 -0.16181658
0002d0 60 cd f9 3d 0a 2e ed bc 63 45 a8 be 8d 07 bb 3e
       0.12197375 -0.028952617 -0.32865438 0.36529198
0002e0 32 2d df bd ac 35 bb be b1 08 1b 3f 5c 22 d3 be
       -0.10897292 -0.36564386 0.6056014 -0.41237152
0002f0 56 12 8b be 56 7c a2 bd b3 16 b6 3e 46 ea a9 3d
       -0.27162427 -0.079338714 0.35564193 0.08296637
000300 16 3b fc 3e 70 9b 7e 3e f1 3b aa be 0e 26 65 be
       0.4926383 0.24863982 -0.33248857 -0.22377798
000310 af 8c f3 be 35 98 af 3d da ae 2b bf 21 c8 7b 3e
       -0.4756827 0.08573953 -0.6706368 0.24588062
000320 41 14 93 3e 26 11 bd bc 4d 26 75 be 33 60 65 bb
       0.2872639 -0.023079466 -0.23940392 -0.0034999966
000330 15 bb 5b 3f bd ff 2a bf a2 79 9c 3e 8c 77 06 be
       0.8583234 -0.66796476 0.30561548 -0.13131541
000340 a6 5c d6 3d 62 50 ed bd 36 84 02 be 5b 49 8e bc
       0.1046689 -0.115875974 -0.12745747 -0.017368963
000350 74 93 2b 3b 2c da 9d be 18 4c a1 3e 29 74 19 3f
       0.0026180418 -0.30830514 0.31503367 0.5994287
000360 20 9f 46 bf 2d 7e 02 3e fc 49 c0 be 09 e6 d2 3e
       -0.77586555 0.12743445 -0.37556446 0.41191128
000370 da 58 c0 bb 76 07 29 bf 15 00 18 bc f1 64 f9 be
       -0.005869967 -0.6602701 -0.009277363 -0.48709825
000380 fd 4a 9d be 36 a6 07 3e 95 0f b2 3d 2b d2 f5 3e
       -0.30721274 0.13246998 0.08694378 0.48011908
000390 d3 5f 18 3e 23 d2 87 3d a6 9b 30 bc 1e 96 a4 bd
       0.14880304 0.06631877 -0.010779297 -0.08036445
0003a0 26 b3 2b be f4 02 fb 3e b5 e8 d7 be 32 f8 fb bd
       -0.16767558 0.4902569 -0.4216973 -0.12303199
0003b0 f7 d1 eb be c7 e6 c0 3e ce 49 13 be c4 0c 6f 3e
       -0.46058628 0.3767607 -0.14383623 0.23344713
0003c0 38 7f 02 3f 6e b9 eb bd 41 3e cc be ab 7b 83 be
       0.5097537 -0.11509977 -0.39891246 -0.2568029
0003d0 7a 70 19 3c 5e 50 57 bd b5 f8 93 3e 56 10 c0 bd
       0.009365195 -0.05256688 0.28900686 -0.09378116
0003e0 49 ed 16 3e 87 b9 3f be 0d d7 c6 3e 14 f8 1a 3e
       0.14738955 -0.18723117 0.38835946 0.15133697
0003f0 45 2b 9d 3e 9d 13 38 be a4 4c 7f 3e 11 a2 4c be
       0.30697075 -0.17976232 0.2493158 -0.19983698

bias f4 [10]
000000 ea ea a5 bd c4 57 2e 3d 12 5c aa 3d 96 8e 97 3d
       -0.08101447 0.04256417 0.08318342 0.07400243
000010 e3 6b 0d bd 0c 7f 59 3c be 1f 0a be 98 49 2d be
       -0.034526717 0.013274919 -0.13488671 -0.16922605
000020 d1 64 cb 3d 1e ec 20 bd
       0.099313386 -0.03928768
