init_mnist_model.pt (torch_old, 447167 bytes, 6 tensors)

weight f4 [128, 784]
-0.007546506 0.016667947 0.030709215 -0.019976018 0.0041463478 -0.010711753 0.02669741 0.013750215
0.0040457933 0.009022494 -0.009325113 -0.029728642 0.01663869 0.016451934 -0.014609088 -0.026395248
0.007826104 -0.021325493 0.030972762 0.03377718 0.008934953 0.031763438 -0.01766882 0.0025593857
0.015667947 0.026764242 0.009617438 -0.031300563 -0.013472321 0.03231197 -0.02420611 -0.011807066
0.017771624 -0.013771906 0.03415131 0.007376148 -0.015619386 0.008595184 0.015523396 -0.035519734
0.0035874236 0.006808484 0.024758102 -0.006337446 -0.011773455 -0.03246988 0.032201357 0.0064627263
0.0009847198 0.008112594 0.02689895 -0.010000721 -0.002532033 -0.02966303 -0.019656401 0.024021985
-0.0032145071 0.009768483 0.018931072 0.003535691 0.007617893 0.010538218 -0.022558302 -0.0045198184
0.0075074304 0.01079273 -0.01018388 0.017633297 -0.009896008 -0.016143134 -0.032238647 0.0022270984
0.025278123 0.025983654 0.03127799 0.000110535744 -0.01680151 0.028590739 0.032484375 0.0030773142
0.005085848 0.02492179 0.00014122223 0.012785074 0.011003067 -0.024925286 -0.020367151 0.012302515
0.008211064 -0.0056836815 0.03144387 -0.013322558 -0.023086099 0.007912904 0.01378651 0.008927541
-0.03229203 0.015694303 -0.026633162 0.039396085 0.032253336 0.031440053 0.025980094 -0.018371467
0.009897763 0.025792912 -0.002868388 0.0074929385 0.031020679 -0.0135137215 0.03351834 0.021844478
0.007003586 -0.0029944524 0.021450311 -0.01774337 -0.024335029 -0.004869966 -0.024917409 -0.027837496
0.013453879 -0.0005887415 0.023492252 0.0031248508 0.0007009998 0.030822866 0.017258426 0.061512757
-0.012975631 -0.04559648 -0.002736854 -0.05117229 -0.049868003 -0.035882756 -0.028250365 -0.023591021
0.013609284 0.023190705 -0.0085991835 -0.030990085 0.0032058842 0.025299305 0.021446504 0.018751282
0.028688712 -0.016619667 0.044383913 -0.017723171 0.022227945 -0.019302037 0.037198517 0.030801682
0.010505762 -0.0174866 -2.0983613e-05 0.04476017 0.031258706 0.009497525 -0.030506587 0.0020399687
-0.051574357 -0.03173407 -0.029254584 0.020052638 0.013032623 0.0319487 0.0017545786 0.027619235
0.026732719 0.0071457946 0.024325207 -0.018745802 0.016139202 -0.024190953 0.004641328 0.0064361943
0.005918541 0.026869517 0.006956036 -0.010072852 -0.021986812 0.012041702 -0.044013858 0.0014261873
-0.004188503 0.0017004826 -0.023655983 -0.0011391666 0.014249522 -0.012342011 -0.011852824 0.0053824666
0.035101574 -0.0038192365 -0.019794788 0.026835475 -0.0022016054 0.024060743 0.03192829 -0.00037686725
0.022284167 0.022472365 -0.039295565 -0.03539789 -0.0032703935 -0.0147341555 0.04702336 -0.012487001
0.013166721 -0.029334884 -0.029870516 0.023068681 -0.03592061 -0.018135209 -0.021821143 -0.03086207
-0.02000823 -0.015578741 0.032536946 -0.011520463 -0.02033953 -0.010380953 0.00089331175 -0.028017605
-0.03345272 -0.008374517 -0.024137152 0.023847207 -0.014652867 0.018265786 -0.04492926 0.026187988
-0.0020510873 0.025859619 -0.0014683703 -0.033196814 -0.015266095 -0.039791763 0.018717047 0.020422421
-0.01839378 -0.016536051 -0.06251207 -0.0022946482 -0.04587143 -0.013935003 0.0023268454 -0.0052264337
-0.019073486 0.01507885 -0.029773243 0.0021167677 0.020651296 0.015613825 -0.023601498 -0.029015483
00000000: ae48 f7bb 388b 883c e491 fb3c bfa4 a3bc
00000010: 16de 873b 5980 2fbc 87b4 da3c 9548 613c
00000020: 9392 843b 15d3 133c 5cc8 18bc 7b89 f3bc
00000030: dd4d 883c 35c6 863c f55a 6fbc d93a d8bc
00000040: 0f39 003c cdb2 aebc 97ba fd3c f159 0a3d
00000050: e963 123c 611a 023d 34be 90bc 5ebb 273b
00000060: 115a 803c af40 db3c 7592 1d3c 0535 00bd
00000070: 03bb 5cbc 8e59 043d e44b c6bc 6d72 41bc
00000080: cc95 913c 8fa3 61bc 3ee2 0b3d 9db3 f13b
00000090: 74e8 7fbc d1d2 0c3c d855 7e3c 247d 11bd
000000a0: fb1a 6b3b b419 df3b 81d1 ca3c 5aaa cfbb
000000b0: 73e5 40bc 23ff 04bd 92e5 033d 47c5 d33b
000000c0: b711 813a afea 043c 305b dc3c 10da 23bc
000000d0: 77f0 25bb e2ff f2bc 7606 a1bc c1c9 c43c
000000e0: 7baa 52bb fd0b 203c 5615 9b3c 0db7 673b
000000f0: 859f f93b 7da8 2c3c 30cc b8bc fc1a 94bb
00000100: e400 f63b fed3 303c 4ada 26bc b473 903c
00000110: de22 22bc 9b3e 84bc ac0c 04bd 83f4 113b
00000120: 1114 cf3c acdb d43c 5a1d 003d 6dcf e738
00000130: 52a3 89bc 2037 ea3c 560e 053d c4ac 493b
00000140: 2fa7 a63b c828 cc3c 0e15 1439 7d78 513c
00000150: 3546 343c 1d30 ccbc 03d9 a6bc 7d90 493c
00000160: b387 063c 2d3e babb 4acb 003d dc46 5abc
00000170: 0f1f bdbc 20a5 013c d0e0 613c d244 123c
00000180: a644 04bd 5791 803c ca2d dabc ca5d 213d
00000190: 131c 043d 49c7 003d 35d4 d43c c27f 96bc
000001a0: 3a2a 223c a84b d33c 91fb 3bbb 5387 f53b
000001b0: 141f fe3c a868 5dbc 874a 093d 31f3 b23c
000001c0: 567e e53b 933e 44bb 90b8 af3c 8b5a 91bc
000001d0: 415a c7bc 3c94 9fbb 981f ccbc 760b e4bc
000001e0: a96d 5c3c c655 1aba d372 c03c 4cca 4c3b
000001f0: 4dc3 373a 3c80 fc3c 8b61 8d3c cdf4 7b3d
00000200: be97 54bc 60c3 3abd ca5c 33bb 099a 51bd
00000210: 6442 4cbd ccf9 12bd 4f6d e7bc f541 c1bc
00000220: 79f9 5e3c 6ffa bd3c 97e3 0cbc ebde fdbc
00000230: d019 523b 7d40 cf3c 94b0 af3c 4a9c 993c
00000240: 9704 eb3c f825 88bc e8cb 353d 2f30 91bc
00000250: 6117 b63c 4e1f 9ebc 795d 183d cf53 fc3c
00000260: 5c20 2c3c 0f40 8fbc f705 b0b7 7156 373d
00000270: 2109 003d 829b 1b3c f3e8 f9bc ffb0 053b
00000280: a23f 53bd 96fb 01bd 4fa7 efbc 6e45 a43c
00000290: c886 553c a4dc 023d e3f9 e53a bc41 e23c
000002a0: 93fe da3c 4527 ea3b a845 c73c cc90 99bc
000002b0: 5c36 843c 1b2c c6bc 4816 983b b6e6 d23b
000002c0: 52f0 c13b 761d dc3c 76ef e33b 9a08 25bc
000002d0: b01d b4bc 8f4a 453c e047 34bd e8ee ba3a
000002e0: b63f 89bb bae2 de3a 31ca c1bc 1750 95ba
000002f0: d476 693c 2536 4abc 5932 42bc 675f b03b
00000300: abc6 0f3d 284c 7abb ae28 a2bc 12d6 db3c
00000310: cf48 10bb 091b c53c 3dc7 023d 4496 c5b9
00000320: 498d b63c f717 b83c 63f4 20bd 61fd 10bd
00000330: 1954 56bb 8767 71bc 919b 403d 4796 4cbc
00000340: 3bb9 573c b64f f0bc 03b3 f4bc 88fa bc3c
00000350: 7d21 13bd 4a90 94bc 41c2 b2bc 74d2 fcbc
00000360: 4de8 a3bc fa3d 7fbc 7645 053d 53c0 3cbc
00000370: 169f a6bc df14 2abc 232d 6a3a 2d85 e5bc
00000380: b805 09bd 4535 09bc 47bb c5bc 385b c33c
00000390: 9412 70bc 21a2 953c be07 38bd 3188 d63c
000003a0: 896b 06bb 8dd7 d33c 5576 c0ba 62f9 07bd
000003b0: a51e 7abc b0fc 22bd 7e54 993c ec4c a73c
000003c0: 8dae 96bc 9d76 87bc 5406 80bd cf61 16bb
000003d0: aee3 3bbd a44f 64bc fd7d 183b 8142 abbb
000003e0: 0040 9cbc 480d 773c 04e7 f3bc 78b9 0a3b
000003f0: e82c a93c 21d1 7f3c ee57 c1bc e1b1 edbc

bias f4 [128]
-0.034221746 -0.008978543 0.024786377 -0.034599308 -0.021801956 -0.02499936 0.0088959485 -0.030852498
-0.028324395 0.007155507 -0.02456104 -0.031993195 0.01472902 0.014659441 0.017470913 0.017165719
0.0033960468 0.018650433 -0.0051378044 -0.012946608 -0.012907946 0.02053357 0.035222203 0.0119162025
-0.004433466 -0.027998349 -0.007172734 0.005732163 0.008081227 -0.030457035 -0.026687417 -0.016122075
-0.035053536 -0.020974042 0.011381441 -0.012774103 -0.016942455 -0.0265249 -0.031350665 0.014372476
-0.0030173676 -0.02588287 0.03007555 0.035394337 0.01221988 -0.01253352 -0.022130923 -0.017877359
-0.033352446 -0.0094224205 -0.02073094 -0.016550492 0.01985658 0.0016171046 0.0021959303 -0.0031464028
-0.0024561442 0.0022671234 0.012258998 0.02074323 0.017534385 -0.027517721 -0.012497892 0.00356286
0.014514092 0.015523482 0.022667335 -0.023713095 -0.026366252 -0.026515711 -0.035960793 0.022154422
-0.0030165433 -0.021734526 -0.026445445 0.02582684 -0.018958336 0.02597628 -0.010836989 0.02331852
0.032830693 0.014227573 0.0064152367 0.008829865 -0.029284108 0.027912024 0.005510779 0.01955335
0.027125595 -0.032578707 0.023257215 -0.025982158 0.03431808 -0.01650144 -0.008498747 0.015938206
-0.021635273 0.0045280135 -0.008595499 0.016240008 0.027477078 0.008641039 -0.02009167 -0.0210431
0.019242419 -0.000104065555 0.029528886 0.026290638 0.0065891156 0.015393069 -0.02899971 0.03424536
0.02509754 0.022414174 -0.025134046 0.003970122 0.027273318 -0.02778299 0.0042198636 -0.016593317
-0.047062587 0.0039297645 -0.0075970152 -0.0096079735 0.015966332 -0.037226666 0.00069863064 0.014745983
00000000: 1a2c 0cbd bd1a 13bc cd0c cb3c 01b8 0dbd
00000010: 049a b2bc 75cb ccbc 50c0 113c 61be fcbc
00000020: 9008 e8bc be78 ea3b 3c34 c9bc 4c0b 03bd
00000030: fd51 713c 272e 703c 291f 8f3c 1f9f 8c3c
00000040: 3690 5e3b cbc8 983c 075b a8bb 021e 54bc
00000050: d97b 53bc 0436 a83c 2845 103d 2d3c 433c
00000060: 9c46 91bb cb5c e5bc 4109 ebbb ded4 bb3b
00000070: 1f67 043c 0881 f9bc 929f dabc 7112 84bc
00000080: 4c94 0fbd c1d1 abbc 3979 3a3c 794a 51bc
00000090: e7ca 8abc bf4a d9bc 8e69 00bd 897a 6b3c
000000a0: 07bf 45bb 5008 d4bc 0061 f63c a7f9 103d
000000b0: e435 483c 6559 4dbc e94b b5bc 8a73 92bc
000000c0: 939c 08bd 7f60 1abc efd3 a9bc e694 87bc
000000d0: 44aa a23c 07f5 d33a 99e9 0f3b e133 4ebb
000000e0: 43f7 20bb 0594 143b f7d9 483c b5ed a93c
000000f0: 45a4 8f3c d86c e1bc f5c3 4cbc df7e 693b
00000100: 84cc 6d3c 3456 7e3c d9b0 b93c f741 c2bc
00000110: 0afe d7bc 7a37 d9bc a04b 13bd 317d b53c
00000120: 33b1 45bb 9b0c b2bc 1ea4 d8bc cf92 d33c
00000130: 834e 9bbc 35cc d43c a08d 31bc 7b06 bf3c
00000140: 7a79 063d c41a 693c e836 d23b 23ab 103c
00000150: 3ae5 efbc c2a7 e43c c493 b43b 592e a03c
00000160: 7f36 de3c 4071 05bd ea85 be3c 89d8 d4bc
00000170: 1d91 0c3d 072e 87bc 543e 0bbc d790 823c
00000180: 753c b1bc bb5f 943b 23d4 0cbc c409 853c
00000190: 9c17 e13c 2593 0d3c 4997 a4bc 9462 acbc
000001a0: 47a2 9d3c c53d dab8 90e6 f13c 775f d73c
000001b0: 82e9 d73b 3633 7c3c cd90 edbc dd44 0c3d
000001c0: 5b99 cd3c ee9d b73c eae5 cdbc cc17 823b
000001d0: 4b6c df3c 2799 e3bc c846 8a3b b5ee 87bc
000001e0: b3c4 40bd 41c5 803b 62f0 f8bb c36a 1dbc
000001f0: d3cb 823c fd7a 18bd 4f24 373a 2399 713c

weight f4 [64, 128]
0.1143906 0.04633521 -0.11520054 0.016042061 -0.013510153 0.21194829 0.26611483 0.24275205
-0.10707718 -0.013680631 -0.12263111 -0.03940803 -0.06253911 0.028944075 -0.03192444 -0.025496121
0.07842028 -0.052212395 -0.048961293 0.09196345 0.16720618 0.05749552 0.10194083 -0.06289307
-0.27484298 0.1571826 -0.080038145 -0.027742246 0.03714174 -0.01465813 0.25720006 0.014678795
-0.10516029 -0.14941752 0.049109865 -0.21188173 0.0741325 0.114431314 0.0018384868 0.18047492
-0.06676034 0.060523674 0.0065529034 -0.12915361 -0.10175635 0.111638434 0.10621292 0.010908183
-0.034136627 0.07658744 -0.08103155 0.051788885 -0.04499831 0.13271831 0.1273585 0.11237658
0.040835045 0.032952808 -0.2044073 0.026425887 0.26924282 -0.103827335 -0.024616126 0.07947548
-0.016639609 0.029810902 0.010743367 0.044580948 -0.03355095 0.10604955 0.036825262 -0.25803387
-0.08444816 -0.038029592 -0.29168773 0.09489405 0.240613 0.05806972 -0.04957515 0.0750127
-0.08262703 -0.037616167 -0.324708 -0.07805523 0.15595922 0.09448511 0.019168522 0.009927213
0.08818313 -0.07853827 0.16147336 -0.27001724 0.0065265377 0.025157936 0.07630776 -0.080022685
0.12940049 0.0060204137 -0.11381945 0.10360158 0.046140708 0.08307856 -0.318867 -0.10028745
0.019840637 0.08977388 0.086574234 -0.07558614 0.031255696 -0.07688799 0.1353937 0.18422374
-0.13972881 0.019230412 0.08766763 -0.022204261 0.01815805 0.055402078 0.07682929 0.21305695
0.012635317 0.025392031 0.25044823 0.019609863 -0.12842222 -0.034971617 -0.015299722 0.02100757
0.1448516 0.27196524 -0.11168776 0.17558096 0.069236204 0.30181265 -0.16166644 0.14537516
-0.07460863 -0.22686677 -0.046408705 0.13436465 0.0093191145 0.034153275 0.0015367663 -0.17113031
0.15706709 0.29217902 -0.01706512 0.14617978 -0.0827156 0.054013565 0.4232737 0.15541822
-0.29772627 0.21816307 0.029708864 0.048047774 -0.04566521 0.16613846 0.016899528 -0.30647603
0.02777322 -0.17019075 0.040627263 -0.027555937 -0.0012674528 -0.054314774 -0.0056560664 0.31213626
0.010081736 -0.004982476 -0.06972911 -0.13737504 -0.16869439 -0.28059918 -0.051589966 0.1568495
-0.018837737 0.035816032 0.07809906 -0.18096238 -0.043969575 -0.09398087 -0.014158246 0.12919903
-0.04059997 -0.07689919 0.07298671 -0.20336364 0.15408124 -0.028053427 -0.046622954 0.07465096
-0.14202769 0.3179635 -0.16960858 0.009142051 -0.038838137 -0.090762146 0.038578812 -0.19328406
0.2739592 -0.1647028 -0.11428556 -0.06800724 0.021864848 -0.30950084 0.022359913 0.19099627
-0.010672201 -0.20945524 -0.045576926 -0.0245348 -0.06702746 -0.03633157 0.25907627 0.14467318
-0.20366403 -0.12568909 0.02506577 0.21100418 -0.014199974 -0.04437617 0.46711957 0.029829167
-0.0388609 0.09095837 0.0034680995 -0.034738407 0.021012496 -0.35048485 -0.0643324 -0.13817118
0.28484336 0.08128356 -0.022094904 0.040838357 -0.029650643 0.030064398 -0.01327064 -0.06191135
-0.008979906 -0.18779604 0.22298655 0.047099877 0.05556081 0.031042008 -0.16272227 0.21037446
-0.19094637 0.12516764 0.09955984 0.08673607 -0.13457844 0.08316211 0.07379988 -0.007673816
00000000: 9e45 ea3d fdc9 3d3d 43ee ebbd a46a 833c
00000010: b059 5dbc f908 593e 3440 883e fe93 783e
00000020: 484b dbbd ba24 60bc 0526 fbbd 516a 21bd
00000030: 8114 80bd 201c ed3c 34c3 02bd 3edd d0bc
00000040: d09a a03d aadc 55bd a38b 48bd 5557 bc3d
00000050: 1938 2b3e 6c80 6b3d 5bc6 d03d 15ce 80bd
00000060: 38b8 8cbe 7af4 203e 0aeb a3bd b543 e3bc
00000070: f021 183d a728 70bc baaf 833e 547f 703c
00000080: 475e d7bd e800 19be 6d27 493d 86f7 58be
00000090: c8d2 973d f75a ea3d 61f9 f03a 6bce 383e
000000a0: a5b9 88bd ace7 773d bdb9 d63b d840 04be
000000b0: a265 d0bd b1a2 e43d 2986 d93d 3cb8 323c
000000c0: d9d2 0bbd e0d9 9c3d dff3 a5bd 9520 543d
000000d0: 2650 38bd 4fe7 073e 446a 023e b125 e63d
000000e0: a642 273d 86f9 063d 2650 51be 1a7b d83c
000000f0: 32da 893e 6da3 d4bd c2a7 c9bc 0ac4 a23d
00000100: ca4f 88bc fe35 f43c f204 303c 839a 363d
00000110: b96c 09bd 8230 d93d 16d6 163d 041d 84be
00000120: 28f3 acbd ebc4 1bbd 1858 95be d057 c23d
00000130: 4163 763e 84da 6d3d 500f 4bbd 42a0 993d
00000140: 5c38 a9bd 6913 1abd 2140 a6be 6cdb 9fbd
00000150: c6b3 1f3e 6981 c13d 4e07 9d3c c0a5 223c
00000160: 5b99 b43d acd8 a0bd 4659 253e b33f 8abe
00000170: 91dc d53b 0418 ce3c 3e47 9c3d efe2 a3bd
00000180: 9081 043e e446 c53b 2c1a e9bd 112d d43d
00000190: 0afe 3c3d 1825 aa3d 8942 a3be 8263 cdbd
000001a0: d588 a23c 5edb b73d d54d b13d e8cc 9abd
000001b0: f905 003d 7377 9dbd a5a4 0a3e 26a5 3c3e
000001c0: 1215 0fbe 1989 9d3c 168b b33d b6e5 b5bc
000001d0: 31c0 943c 4aed 623d ad58 9d3d 9a2b 5a3e
000001e0: 5c04 4f3c f302 d03c c03a 803e dda4 a03c
000001f0: 1d81 03be 663e 0fbd afab 7abc 1118 ac3c
00000200: fa53 143e 073f 8b3e 8dbc e4bd 7fcb 333e
00000210: b6cb 8d3d 3087 9a3e e38b 25be 3add 143e
00000220: 69cc 98bd c34f 68be 0e17 3ebd e396 093e
00000230: 33af 183c 4ee4 0b3d 526d c93a c93c 2fbe
00000240: 32d6 203e 7d98 953e 27cc 8bbc 27b0 153e
00000250: cc66 a9bd 543d 5d3d 55b7 d83e f425 1f3e
00000260: 946f 98be 2466 5f3e 0160 f33c becd 443d
00000270: 710b 3bbd 3320 2a3e e170 8a3c 6dea 9cbe
00000280: aa84 e33c 7c46 2ebe c668 263d fdbc e1bc
00000290: a920 a6ba 2b79 5ebd 8656 b9bb 53d0 9f3e
000002a0: de2d 253c 0a44 a3bb 23ce 8ebd 0bac 0cbe
000002b0: 39be 2cbe b2aa 8fbe 0050 53bd 289d 203e
000002c0: 9951 9abc d5b3 123d 66f2 9f3d 344e 39be
000002d0: 7119 34bd 0b79 c0bd fdf7 67bc c04c 043e
000002e0: 274c 26bd 537d 9dbd 0e7a 953d 8f3e 50be
000002f0: 79c7 1d3e 4dd0 e5bc b6f7 3ebd 9ae2 983d
00000300: b56f 11be 1dcc a23e dfad 2dbe 8bc8 153c
00000310: bd14 1fbd 81e1 b9bd d104 1e3d 42ec 45be
00000320: 6144 8c3e daa7 28be 8c0e eabd 6147 8bbd
00000330: e91d b33c e576 9ebe 232c b73c 8794 433e
00000340: 75da 2ebc 6f7b 56be dfae 3abd 34fd c8bc
00000350: b145 89bd 6ad0 14bd a5a5 843e 3525 143e
00000360: 4e8d 50be a4b4 00be bb56 cd3c 7b11 583e
00000370: 02a7 68bc c9c3 35bd 4c2a ef3e 4c5c f43c
00000380: 9b2c 1fbd 6248 ba3d 0e49 633b dc49 0ebd
00000390: 6622 ac3c c072 b3be b5c0 83bd bf7c 0dbe
000003a0: fdd6 913e ff77 a63d 5f00 b5bc 1f46 273d
000003b0: e8e5 f2bc 9d49 f63c 196d 59bc c196 7dbd
000003c0: 7520 13bc 9b4d 40be 9656 643e cdeb 403d
000003d0: bb93 633d cf4b fe3c aba0 26be 676c 573e
000003e0: 7287 43be f22b 003e 08e6 cb3d aea2 b13d
000003f0: eece 09be e550 aa3d 6424 973d a274 fbbb

bias f4 [64]
0.08227782 -0.05955837 0.090905525 -0.09719112 0.012797595 0.033586305 0.038421836 0.084882356
-0.03980347 -0.058308844 -0.034889027 0.024706742 -0.07385726 0.06340145 0.07286449 -0.011665565
-0.07299569 0.04351002 -0.031203698 -0.028738132 -0.016154958 -0.008236106 -0.06734869 -0.04753993
0.06565437 0.019746823 0.07751623 -0.03578551 -0.006753998 0.013560142 0.028973905 -0.071540914
-0.07403219 -0.09537861 -0.08585262 0.01811644 -0.031160442 0.008085665 -0.07257297 -0.07336898
-0.042585656 -0.0368543 -0.066705555 0.07135192 0.091085486 0.11752909 -0.08510625 0.06541323
-0.00191724 -0.05773235 -0.005407152 0.03267896 0.02115593 -0.0022567038 -0.021677041 0.016039995
0.031382777 0.093993336 0.08180591 -0.06288258 -0.020965116 0.011166895 -0.029127125 0.08088893
00000000: 4681 a83d 7af3 73bd ad2c ba3d 230c c7bd
00000010: 01ad 513c cb91 093d 3760 1d3d cdd6 ad3d
00000020: f708 23bd 41d5 6ebd cce7 0ebd cb65 ca3c
00000030: 7a42 97bd 9fd8 813d fa39 953d ed20 3fbc
00000040: c47e 95bd 9037 323d e69e ffbc 3b6c ebbc
00000050: 6757 84bc bbf0 06bc 1cee 89bd 3bb9 42bd
00000060: cc75 863d 17c4 a13c d4c0 9e3d d493 12bd
00000070: a450 ddbb 5c2b 5e3c af5a ed3c 0b84 92bd
00000080: 309e 97bd dc55 c3bd 80d3 afbd ee68 943c
00000090: 2f44 ffbc bd79 043c 23a1 94bd 7a42 96bd
000000a0: 4c6e 2ebd 89f4 16bd ec9c 88bd f520 923d
000000b0: 078b ba3d 17b3 f03d 304c aebd 5ff7 853d
000000c0: e64b fbba c278 6cbd 7b2e b1bb 60da 053d
000000d0: 334f ad3c 35e5 13bb 0d94 b1bc 4f66 833c
000000e0: 3a8b 003d 947f c03d db89 a73d 95c8 80bd
000000f0: 09bf abbc 5af5 363c 029c eebc 18a9 a53d

weight f4 [10, 64]
-0.0722249 -0.41518962 -0.23292403 -0.04995336 0.12190669 0.83061725 -0.38987216 0.3427335
-0.14092536 -0.07780725 0.12102092 -0.16667223 -0.13031057 0.12971845 -0.036258154 -0.26866007
0.04911532 -0.03383108 -0.07348868 -0.042939123 -0.31385237 -0.16654679 -0.24503766 -0.49407634
0.904844 0.07024102 -0.101362996 -0.41743118 -0.020725789 -0.2240533 -0.67229766 -0.43980652
0.3122207 0.07125212 -0.14945316 -0.05985361 -0.72743946 0.17935982 -0.05632638 -0.041280635
0.37238783 -0.017728677 0.24097197 0.21747568 -0.2724201 -0.38377258 -0.15786304 0.13011125
0.17919976 -0.083810456 -0.057682075 0.11893253 0.030186897 -0.020274116 -0.08215483 -0.20797195
0.058668066 0.08507707 0.4696415 -0.20386083 0.034141447 -0.0031979175 0.30897123 0.033135153
0.23598501 0.4420781 -0.32617846 -0.10071879 0.4598816 -0.60995275 -0.29485136 -0.243942
0.20290132 -0.002434037 -0.33583036 0.15175931 -0.2219351 -0.7260269 -0.1064896 0.08955296
0.16359034 0.26583153 0.31050593 0.09766461 -0.36699086 0.2840376 0.21808457 0.23405349
-0.26868948 0.06560311 0.4666954 -0.59238195 -0.009465538 0.28931037 0.43430674 0.3374326
0.14669457 0.34702983 0.08602941 -0.27359268 0.2097518 0.06880925 0.06474032 -0.08403132
-0.22826564 -0.027630378 0.011760599 0.5064993 0.28871605 0.17041588 0.27142078 0.51933306
0.6803705 0.17219326 0.2952608 0.3483755 0.09204892 0.17125167 0.15848295 0.4864077
-0.10754749 0.19232723 -0.39433995 -0.41957664 -0.63514715 0.16518095 -0.3678328 -0.08312847
-0.6676368 -0.6568001 0.25522977 -0.1743606 0.25464877 -0.40850383 -0.27984655 0.6440968
0.41717008 -0.0047004446 0.6065077 0.09800806 -0.11958275 0.4757521 0.4596478 0.036993656
-0.028263832 -0.11426189 -0.39889577 -0.095445834 -0.019556368 -0.26144055 0.20734908 -0.053753037
-0.114524856 -0.08080925 0.0022747745 -0.27597442 0.0879749 0.16517162 0.7382435 -0.14254817
0.18576322 -0.4379213 0.09050769 0.16171095 -0.29269537 -0.055984527 0.44723535 -0.017885227
-0.30573344 -0.047124714 0.3900347 -0.42916918 0.72786736 -0.25314415 -0.3154095 -0.28351498
0.42170143 -0.33495802 0.4643904 -0.16207433 0.12182251 -0.0292189 -0.32790524 0.36491224
-0.10872908 -0.36476925 0.6040516 -0.41122618 -0.27067396 -0.07915377 0.355251 0.08261393
0.49173376 0.24817622 -0.33208355 -0.22227642 -0.47440302 0.08517293 -0.6687447 0.24620922
0.28679144 -0.023078756 -0.2388877 -0.003349417 0.8564485 -0.66512257 0.3049515 -0.1310277
0.104670055 -0.11574846 -0.1271855 -0.017461797 0.0032272015 -0.30783808 0.31448716 0.5986666
-0.77389747 0.127149 -0.37499624 0.41126034 -0.005811779 -0.65918875 -0.00881815 -0.48613662
-0.3064973 0.13175485 0.08693231 0.4800775 0.14820732 0.06592985 -0.009592688 -0.08036134
-0.16718689 0.48938647 -0.42077497 -0.12294654 -0.45947924 0.375518 -0.1434027 0.23303473
0.50842524 -0.11489059 -0.39739725 -0.25649664 0.009410233 -0.052639347 0.2884838 -0.093767166
0.14735681 -0.18633753 0.38775432 0.15205462 0.30676636 -0.17950891 0.24860549 -0.19948666
00000000: a6ea 93bd bc93 d4be a383 6ebe e59b 4cbd
00000010: 37aa f93d 55a3 543f 539d c7be c47a af3e
00000020: bd4e 10be 6859 9fbd d1d9 f73d 20ac 2abe
00000030: 2270 05be ead4 043e 6e83 14bd d08d 89be
00000040: 252d 493d 7592 0abd 3c81 96bd efe0 2fbd
00000050: 42b1 a0be 3e8b 2abe 27eb 7abe 93f7 fcbe
00000060: dba3 673f 86da 8f3d 6797 cfbd 8ab9 d5be
00000070: 21c9 a9bc 3a6e 65be b31b 2cbf 522e e1be
00000080: 64db 9f3e a2ec 913d 400a 19be 0f29 75bd
00000090: 7939 3abf 1aaa 373e 7eb6 66bd e215 29bd
000000a0: 9ea9 be3e bb3b 91bc 5bc1 763e f2b1 5e3e
000000b0: a67a 8bbe d77d c4be d9a6 21be e23b 053e
000000c0: 2480 373e d1a4 abbd 0a44 6cbd e692 f33d
000000d0: 834a f73c e715 a6bc cb40 a8bd 99f6 54be
000000e0: ed4d 703d e33c ae3d da74 f03e e5c0 50be
000000f0: e7d7 0b3d 2794 51bb 7a31 9e3e bab8 073d
00000100: 0ea6 713e 1058 e23e dd00 a7be a745 cebd
00000110: 9a75 eb3e dd25 1cbf c2f6 96be efcb 79be
00000120: 5dc5 4f3e 5d84 1fbb f5f1 abbe cb66 1b3e
00000130: f442 63be e6dc 39bf 3817 dabd 8b67 b73d
00000140: 3a84 273e 121b 883e a2fa 9e3e 6204 c83d
00000150: 3ae6 bbbe 606d 913e 9051 5f3e b8ab 6f3e
00000160: ab91 89be ec5a 863d b3f2 ee3e 58a6 17bf
00000170: 5815 1bbc 7d20 943e 745d de3e f7c3 ac3e
00000180: 1a37 163e e5ad b13e 3030 b03d 5714 8cbe
00000190: 2dc9 563e ddeb 8c3d 9396 843d 9d18 acbd
000001a0: 78be 69be 1a59 e2bc 87af 403c f0a9 013f
000001b0: 97d2 933e 8081 2e3e aaf7 8a3e 03f3 043f
000001c0: c32c 2e3f 6e53 303e 6c2c 973e 465e b23e
000001d0: 2584 bc3d 995c 2f3e 5b49 223e 6e0a f93e
000001e0: dc41 dcbd 6ef1 443e ede6 c9be c0d2 d6be
000001f0: 0199 22bf 3225 293e 9554 bcbe 423f aabd
00000200: 3fea 2abf 0d24 28bf 7aad 823e 968b 32be
00000210: 5361 823e 6a27 d1be 0c48 8fbe 87e3 243f
00000220: 5197 d53e 3006 9abb 1744 1b3f 73b8 c83d
00000230: cde7 f4bd c795 f33e f556 eb3e a986 173d
00000240: 8d89 e7bc 2302 eabd 113c ccbe 1b79 c3bd
00000250: ad34 a0bc 89db 85be 5153 543e 252c 5cbd
00000260: 028c eabd 527f a5bd 6214 153b 854c 8dbe
00000270: 2f2c b43d c022 293e 87fd 3c3f 26f8 11be
00000280: b738 3e3e 3837 e0be 195c b93d 8e97 253e
00000290: 2bdc 95be 0850 65bd 08fc e43e 0a84 92bc
000002a0: 1889 9cbe d805 41bd a1b2 c73e 10bc dbbe
000002b0: 8455 3a3f 1c9c 81be 5b7d a1be e028 91be
000002c0: 40e9 d73e 9e7f abbe 94c4 ed3e d0f6 25be
000002d0: 157e f93d 795c efbc 32e3 a7be c7d5 ba3e
000002e0: 5aad debd 09c3 babe 20a3 1a3f 3d8c d2be
000002f0: c795 8abe 5f1b a2bd 76e3 b53e 7e31 a93d
00000300: 87c4 fb3e e821 7e3e db06 aabe 6e9c 63be
00000310: f4e4 f2be 256f ae3d da32 2bbf 451e 7c3e
00000320: 54d6 923e a90f bdbc fa9e 74be e481 5bbb
00000330: 3540 5b3f 7945 2abf 9a22 9c3e 202c 06be
00000340: 415d d63d 870d edbd ea3c 02be 0b0c 8fbc
00000350: 757f 533b f49c 9dbe 7604 a13e 3742 193f
00000360: 251e 46bf 5933 023e 82ff bfbe b790 d23e
00000370: bc70 bebb 98c0 28bf 007a 10bc e6e6 f8be
00000380: 37ed 9cbe beea 063e 9109 b23d b8cc f53e
00000390: a9c3 173e 3b06 873d a62a 1dbc 7c94 a4bd
000003a0: 0a33 2bbe dd90 fa3e d16f d7be 65cb fbbd
000003b0: dd40 ebbe e543 c03e 28d8 12be a8a0 6e3e
000003c0: 2828 023f c24b ebbd a777 cbbe 8753 83be
000003d0: 612d 1a3c 5b9c 57bd 26b4 933e 0009 c0bd
000003e0: b4e4 163e 44cf 3ebe bc87 c63e 35b4 1b3e
000003f0: 7b10 9d3e 2fd1 37be 7092 7e3e 3b46 4cbe

bias f4 [10]
-0.08102983 0.04258764 0.083137885 0.07403984 -0.034747057 0.013215346 -0.134807 -0.16923796
0.099323645 -0.039085805
00000000: f8f2 a5bd 6170 2e3d 3244 aa3d 33a2 973d
00000010: ee52 0ebd 2e85 583c d90a 0abe b74c 2dbe
00000020: 326a cb3d 7018 20bd
