init_mnist_model.pt (torch_old, 447167 bytes, 6 tensors)

weight f4 [128, 784]
0	0x3c6d4af5	0.014483203
1	0xbc8baa01	-0.017048838
2	0xbcac760f	-0.021052388
3	0xbcb8e8e3	-0.022571987
4	0xbcd3f873	-0.025875306
5	0xbc9fefff	-0.019523619
6	0x3c9ab4fd	0.01888513
7	0xb907ead4	-0.00012962084
8	0x3caa4c13	0.020788228
9	0x3c9d8085	0.019226322
10	0x3ba094c5	0.004900547
11	0x3cd19a91	0.025586398
12	0x3cec76bd	0.028865213
13	0xbb429a66	-0.002969408
14	0x3cef82f1	0.029237242
15	0x3c4a5b92	0.012350934
16	0x3ced1c9d	0.028944308
17	0xba1e5833	-0.00060403644
18	0x3c01d4af	0.007924243
19	0xbc1c0b53	-0.009524184
20	0x3c506af1	0.012720809
21	0x3cbd958b	0.023142597
22	0xbd099630	-0.033590496
23	0xbb35ff3a	-0.0027770535
24	0x3c742c1e	0.0149030965
25	0xbc333a1d	-0.010939148
26	0x3c86e56f	0.016466824
27	0xbcf26a32	-0.029591653
28	0xbc801fdf	-0.015640197
29	0x3cb54cd7	0.022131367
30	0xbcdf4113	-0.02725271
31	0x3ceab79d	0.028652007
32	0xbb1475da	-0.0022653253
33	0xbc858b0a	-0.01630165
34	0x3b55fbd7	0.003265133
35	0xbd0bda67	-0.03414383
36	0xbc7af6ae	-0.015317602
37	0x3d09a2c0	0.033602476
38	0xbca2555a	-0.01981609
39	0xbc21f07f	-0.009883999
40	0xbc4264d3	-0.011864859
41	0x3cd89a2a	0.026440699
42	0x3d06168a	0.03273634
43	0x3b350160	0.0027619228
44	0x3c95fcce	0.018309023
45	0x3caafa50	0.020871311
46	0xbb54c94e	-0.003246862
47	0x3ceb4d67	0.028723432
48	0xbcd65e27	-0.026167942
49	0xbd0ef6f8	-0.034903497
50	0xbcedc9ab	-0.029026827
51	0xbcf78b3d	-0.030217761
52	0xbd0e2dbe	-0.034711592
53	0x3c88c2ee	0.016694512
54	0xbcce42a8	-0.025178269
55	0xbc7cf89b	-0.015440132
56	0xbcbca2e1	-0.023026885
57	0x3cf5f768	0.030025199
58	0xbcdb3baf	-0.026761858
59	0x3d1054a9	0.03523699
60	0xbc483494	-0.012219567
61	0xbc6ef0e1	-0.014583797
62	0x3ca76093	0.020431792
63	0xbcce2d8b	-0.025168201
64	0xbd07871b	-0.03308783
65	0x3cb3ff43	0.021972304
66	0x3c6083e7	0.013703323
67	0xbc160635	-0.009156753
68	0xbc972320	-0.018449366
69	0xbcc40e49	-0.023932593
70	0xbd0857a7	-0.033286717
71	0xbb5e1a86	-0.003389032
72	0xbc90f88f	-0.017696647
73	0x3b8efd2d	0.004363677
74	0xbc0fab83	-0.008768919
75	0x3c82199b	0.01588135
76	0x3c3c72ba	0.011501962
77	0xbcea679d	-0.02861386
78	0xbca276ac	-0.019831978
79	0xbcbd5192	-0.023110185
80	0xbcb6be61	-0.022307577
81	0xbc3e6b69	-0.011622288
82	0x3c06b30d	0.0082214
83	0xbb336aeb	-0.002737696
84	0x3c535275	0.012898077
85	0xbc539c91	-0.012915746
86	0x3cad6bad	0.021169508
87	0xbc742a51	-0.014902667
88	0xbcc9fd15	-0.024656812
89	0xbcf5f3e1	-0.030023517
90	0x3ce7713f	0.028252242
91	0x3ceb2581	0.028704407
92	0x3baadc70	0.0052142665
93	0xba5ab68f	-0.00083432434
94	0x3cee2da7	0.029074503
95	0xbbab2c82	-0.0052238116
96	0x3bf647c1	0.007515878
97	0xbcb2de17	-0.021834416
98	0xbd022523	-0.031773698
99	0xbd0f7b8b	-0.03502993
100	0xbcf3f8a2	-0.029781643
101	0xbd032ece	-0.03202706
102	0xbcce502d	-0.025184715
103	0xbcf697b8	-0.030101642
104	0xbc6eff31	-0.01458721
105	0xbd25776f	-0.040397104
106	0xbd01ff3e	-0.03173756
107	0xbce9226b	-0.028458795
108	0x3ba08f3e	0.0048998883
109	0x3d243f0b	0.040099185
110	0x3c1fcbca	0.009753177
111	0xbc39453d	-0.011308012
112	0x3af3a693	0.0018589072
113	0x3c6a0393	0.014283079
114	0xbc8a2cea	-0.01686712
115	0x3c41ac69	0.011820891
116	0xbcdba526	-0.026812147
117	0x3ceccada	0.02890532
118	0xbcb4e190	-0.022080213
119	0x3c23014a	0.009949038
120	0xbcef6946	-0.029225003
121	0xbc0f98b5	-0.008764436
122	0xbc522c71	-0.0128279785
123	0x3caa885a	0.02081697
124	0xbc8cfcf7	-0.017210467
125	0x3b53f336	0.003234101
126	0xbcfa2bbe	-0.030538436
127	0xbd4ba7e1	-0.04972065
128	0xbd462515	-0.048375208
129	0xbd037e8c	-0.032103106
130	0xbd12574a	-0.035727777
131	0xbd1dfd91	-0.038571898
132	0x3c80a7fe	0.015705105
133	0xbc702ac2	-0.014658632
134	0xbc916ca5	-0.017752001
135	0x3ca37978	0.019955382
136	0xbcc8d414	-0.02451519
137	0x3c846a1c	0.016163878
138	0x3d0538de	0.032524936
139	0xbcb7100a	-0.022346515
140	0xbbc81866	-0.006106424
141	0xbc8086f4	-0.01568935
142	0x3c9dd13d	0.019264812
143	0xbb7e4818	-0.0038800295
144	0xbc4faad5	-0.012675007
145	0x3c89d1e0	0.016823709
146	0x3cbe49b6	0.023228507
147	0x3c46847a	0.012116546
148	0x3bdf3240	0.00681141
149	0x3d1b56d4	0.037924603
150	0xbc14a905	-0.0090735005
151	0xbc708d1f	-0.014682083
152	0x3ce7c853	0.028293764
153	0x3babb166	0.0052396534
154	0x3c2d9d81	0.010596634
155	0xbc49ed09	-0.01232458
156	0x3ba8e03d	0.0051536844
157	0xbd2e044d	-0.04248457
158	0xbd550153	-0.052003216
159	0xbd807869	-0.062729664
160	0x3bb90990	0.005646892
161	0x3c4c554d	0.012471509
162	0x3cf64620	0.030062735
163	0x3cbc16a9	0.022960024
164	0xb9d32ac8	-0.0004027693
165	0xbc411845	-0.011785571
166	0x3d0ac3d3	0.03387816
167	0x3ce58126	0.028015684
168	0x3d02c820	0.031929135
169	0x3c4ee29b	0.012627269
170	0xbc5cd406	-0.013478285
171	0xbc5f2e46	-0.013621872
172	0xbcdfcb2a	-0.027318556
173	0x3d27f1b9	0.04100201
174	0x3c9c7f74	0.019103743
175	0xbc7d7af0	-0.015471205
176	0x3d0196b4	0.031637862
177	0x3adebf13	0.00169942
178	0x3cbe7d6e	0.023253169
179	0x3d8ff8a7	0.070298485
180	0x39b00b04	0.00033577543
181	0xbd3ff4db	-0.04686437
182	0xbca9994e	-0.020702984
183	0xbcf75c45	-0.030195365
184	0xbd731a25	-0.059351105
185	0xbc4f886e	-0.012666805
186	0xbccd134e	-0.02503362
187	0x3be6a6f4	0.0070389453
188	0xbb630123	-0.0034638129
189	0xbbaa7b9c	-0.0052027237
190	0x3ca95a50	0.020672947
191	0x3c37f921	0.011228831
192	0xbc63345a	-0.013867462
193	0xbc93787c	-0.018001787
194	0x3ca5c4a3	0.020235365
195	0x3ce5340e	0.027978923
196	0x3c2947aa	0.010332027
197	0x3cf12845	0.029438147
198	0xbcb76a07	-0.022389425
199	0xbbca906c	-0.006181767
200	0xbca974b1	-0.020685526
201	0x3beb1943	0.0071746423
202	0xbc6b7242	-0.014370503
203	0xbc21ea70	-0.009882554
204	0x3d620bd2	0.055187054
205	0x3d1114b5	0.03542014
206	0x3d084680	0.03327036
207	0xbc6ec590	-0.01457347
208	0x3d2df516	0.04247006
209	0x3c764075	0.015030016
210	0xba1fd91f	-0.0006097722
211	0xbbcbecbb	-0.006223289
212	0xbc3f5fca	-0.011680553
213	0x3ce49b0e	0.027905967
214	0x3d71ef5c	0.05906616
215	0x3d9aa9a0	0.07551885
216	0x3dcaf3a3	0.09909751
217	0x3d7d7d52	0.061887093
218	0x3dcb77fc	0.099349946
219	0xbc905856	-0.017620247
220	0x3caf20ef	0.021378009
221	0x3c8d1d76	0.017225962
222	0x3c62c79e	0.013841538
223	0x3cf95033	0.03043375
224	0xbcc4a70b	-0.024005434
225	0x3d09dc0a	0.03365711
226	0x3cfd9312	0.030953918
227	0x3d1b2c60	0.037884116
228	0xbc82ce5a	-0.015967537
229	0x3d02c798	0.03192863
230	0x3d0d85ce	0.034551434
231	0x3d327b45	0.04357459
232	0x3d904c87	0.070458464
233	0x3d918cfc	0.07106969
234	0x3d82aaba	0.0638022
235	0x3d86d02c	0.065826744
236	0x3d491581	0.049092773
237	0x3d221468	0.039570242
238	0x3cf2c0ad	0.02963289
239	0x3d50f84b	0.05101804
240	0x3d7b2620	0.061315656
241	0x3d6c3e5c	0.057676658
242	0x3d49f0ce	0.049301915
243	0x3dd537de	0.104110464
244	0x3dae5135	0.08511583
245	0x3d31f6f3	0.0434484
246	0x3d2faa1c	0.04288684
247	0x3da330bb	0.07968279
248	0x3bc2a027	0.005939502
249	0xbabb540a	-0.0014292013
250	0xba7dc29c	-0.0009680183
251	0x3ce29408	0.027658477
252	0x3c465c56	0.012106976
253	0x3d084562	0.033269294
254	0x3d0d3f70	0.034484327
255	0x3d2801d2	0.04101736

bias f4 [128]
0	0xbc4e1015	-0.012577076
1	0x3cef27bb	0.02919375
2	0xbc86bb2d	-0.016446674
3	0x3c9e89c1	0.019352796
4	0xbcb92ed0	-0.02260533
5	0x3cbdd978	0.023174986
6	0x3b67e5ec	0.0035384847
7	0x3d0b5cdc	0.034024104
8	0x3cd31228	0.025765494
9	0xbbb1863e	-0.0054176142
10	0xbccc4d7f	-0.024939297
11	0x3cf0962e	0.029368486
12	0x3cf731ea	0.030175168
13	0xbc6b045d	-0.014344302
14	0x3cfe07de	0.03100961
15	0xbb8bcda8	-0.0042664595
16	0xbcfd528f	-0.030923156
17	0xbc2da42f	-0.010598226
18	0xbc95691d	-0.018238598
19	0x3c8b9f1d	0.017043645
20	0xbca8ecea	-0.020620782
21	0xbc9731ed	-0.018456424
22	0x3ca75214	0.02042488
23	0x3c59f6a7	0.013303435
24	0x3c8e87ed	0.017398799
25	0xbbc25906	-0.0059310226
26	0xbc3b4d68	-0.011432029
27	0xbb250123	-0.002517768
28	0xbcb046e4	-0.021518178
29	0xbbeca891	-0.007222243
30	0x3aab33f6	0.001306175
31	0x3c36b14f	0.011150672
32	0xbbb3c25f	-0.0054858173
33	0x3c1e9fea	0.009681681
34	0xbcd27e08	-0.025694862
35	0xbc20b1ee	-0.009808047
36	0x3ce8a7fe	0.028400417
37	0x3d14ba44	0.03631045
38	0x3be475b0	0.0069720373
39	0xbb31c332	-0.0027124402
40	0xbb1fec1c	-0.0024402207
41	0x3ce2377c	0.027614348
42	0xbc88fd7d	-0.016722435
43	0xbccd9464	-0.025095172
44	0x3cb81867	0.022472573
45	0x3a5a0b18	0.0008317693
46	0x3cd707f0	0.026248902
47	0xbcbea287	-0.023270858
48	0x3c80260e	0.015643146
49	0xbcb93fc7	-0.02261342
50	0x3d0db2c4	0.034594312
51	0xbc776d3b	-0.015101726
52	0x3ca86575	0.020556191
53	0x3caaed24	0.02086503
54	0x3cc9e8b3	0.024647092
55	0xbc9c1f40	-0.01905787
56	0x3bb20291	0.005432435
57	0xba44edf3	-0.0007512264
58	0x3c3b2e1c	0.011424568
59	0x3cb4a2b2	0.022050235
60	0xbc856f8d	-0.016288543
61	0xbbd49fa9	-0.0064887595
62	0x3b1d7a19	0.0024029075
63	0x3d0c488b	0.03424887
64	0xbc1e0e43	-0.009646955
65	0x3cb67bf7	0.022275908
66	0x3b6f5acf	0.0036522632
67	0x3c84d0f5	0.01621292
68	0xbc594076	-0.013259998
69	0x3c426ff5	0.011867513
70	0xbc9b919b	-0.018990329
71	0x3ce72ee5	0.028220603
72	0x383c79c8	4.493611e-05
73	0xbc6c5bea	-0.014426211
74	0x3c65e0b2	0.014030622
75	0xbcb592dd	-0.022164756
76	0xbcaa3838	-0.02077876
77	0xbae46985	-0.0017426467
78	0x3d0aff5c	0.033934936
79	0x3ab9e915	0.0014183844
80	0xbb043bbc	-0.0020177206
81	0x3cb017f1	0.021495791
82	0xbc09285a	-0.008371437
83	0xbcd15415	-0.025552789
84	0x3b25acf2	0.0025280085
85	0xbd0cca18	-0.03437242
86	0x3ce32844	0.027729161
87	0xbb7b1242	-0.0038310443
88	0xbc1957c7	-0.009359307
89	0xbc3eb62e	-0.011640115
90	0x3cbcdb58	0.02305381
91	0x3ca3a783	0.019977337
92	0x3ce1f2c5	0.027581582
93	0xbc799120	-0.015232354
94	0x3cf5e437	0.030016048
95	0xbba8f739	-0.0051564244
96	0xbae65b60	-0.0017574839
97	0xbbc70d89	-0.0060746116
98	0x3c8dc21c	0.017304473
99	0xbb8090a6	-0.0039234934
100	0xbcbcf6af	-0.023066847
101	0x3cc333af	0.023828356
102	0x3cef2a14	0.02919487
103	0x3a680fac	0.0008852433
104	0xbcb9c6c8	-0.022677794
105	0x3c3185be	0.010835109
106	0xb99d55af	-0.00030009213
107	0x3ce60a73	0.028081154
108	0xbb084356	-0.0020792088
109	0x3c9870eb	0.018608531
110	0xbce87b9d	-0.028379256
111	0xbd051419	-0.03248987
112	0x3c9b9698	0.018992707
113	0xbcfcf7b5	-0.030879835
114	0xbc22be4c	-0.009933066
115	0x3b8eba56	0.004355709
116	0xbcba52ba	-0.022744525
117	0xbcba9634	-0.0227767
118	0xbce19032	-0.027534578
119	0xbcd29f46	-0.025710713
120	0xbc957d87	-0.018248333
121	0xbc49b3f8	-0.012310974
122	0xbc8004e9	-0.015627341
123	0x3d0724c1	0.032994036
124	0xbc4ce608	-0.012506016
125	0x3cd2b415	0.025720635
126	0xb917573b	-0.00014432978
127	0xbd145641	-0.03621507

weight f4 [64, 128]
0	0xbdac7cc0	-0.08422232
1	0x3d8845f6	0.06653969
2	0x3d105ab8	0.035242766
3	0x3cdb381f	0.026760159
4	0x3d7d2e03	0.06181146
5	0x3dad1a35	0.08452264
6	0xbd7c9ea8	-0.061674744
7	0x3d2e6542	0.042577036
8	0xbc916ab2	-0.017751072
9	0x3da1211d	0.07867644
10	0xbd50c7be	-0.05097174
11	0xbd1a6541	-0.03769422
12	0x3da198a2	0.078904405
13	0xbd07d7b3	-0.03316469
14	0xbd81ec37	-0.063438825
15	0x3cb48699	0.022036837
16	0x3d96c03d	0.07360885
17	0xbccfef80	-0.025382757
18	0x3cb7b9e7	0.022427512
19	0x3d492e09	0.04911617
20	0xbc6bf6ba	-0.014402086
21	0x3d758892	0.059944697
22	0xbd043a5f	-0.03228223
23	0x3d5173ae	0.05113571
24	0x3d314b8b	0.043284934
25	0x3dab4188	0.083621085
26	0x3ce3d3dd	0.027810985
27	0x3bd59c4d	0.0065188766
28	0x3d351a37	0.044214454
29	0xbcd94d9b	-0.026526263
30	0xba5155ed	-0.0007985521
31	0xbd8b48e4	-0.06801012
32	0x3bd312b4	0.0064414386
33	0xbd4bc913	-0.049752306
34	0xbda1fb5f	-0.07909273
35	0xbd8b626e	-0.06805883
36	0xbdb3a14b	-0.087709986
37	0xbd67819e	-0.056520097
38	0xbcbbf4dd	-0.022943908
39	0xbc8bbc6d	-0.017057622
40	0xba7210dd	-0.000923408
41	0x3dadca20	0.08485818
42	0xbb9f06be	-0.0048530987
43	0xbc9bff69	-0.019042687
44	0xbd96a765	-0.07356147
45	0x3d4cbb22	0.04998315
46	0xbd53d0e3	-0.05171288
47	0x3da83e59	0.08215017
48	0x3be637d0	0.0070256963
49	0xbbfb7813	-0.007674226
50	0xbc7bcb45	-0.015368287
51	0x3d6e91b8	0.058244437
52	0xbdb0d591	-0.086344846
53	0xbdc00eb9	-0.09377808
54	0x3d8238c4	0.063584834
55	0xbdab6aa2	-0.08369948
56	0x3dc26684	0.094922096
57	0xbd95f96f	-0.07322966
58	0xbccbce92	-0.024878774
59	0xbd794e96	-0.06086596
60	0x3c4065af	0.011742993
61	0xbdd460a3	-0.103699945
62	0x3db672fc	0.0890865
63	0xbcdc56f7	-0.026896937
64	0xbd94e194	-0.07269588
65	0x3d7c969f	0.06166708
66	0x3c91a717	0.01777987
67	0x3c8cfeaf	0.017211286
68	0x3d1fa2d6	0.03897365
69	0x3da7b372	0.08188523
70	0x3d8502e1	0.0649469
71	0xbdacdd51	-0.0844065
72	0xbd9ed09a	-0.07754631
73	0x3da08d95	0.07839505
74	0xbca69ed0	-0.0203394
75	0x3b709944	0.0036712447
76	0xbd83885d	-0.064224936
77	0xbd63cc9b	-0.05561505
78	0x3db589eb	0.088641964
79	0xbc79a1d1	-0.015236334
80	0x3b746ab0	0.0037295036
81	0x3d8365a9	0.064158745
82	0xbd34ff9a	-0.044189073
83	0xbd54f063	-0.051987063
84	0x3ae6dacd	0.0017612815
85	0x3cc4d9ea	0.02402969
86	0xbd3d9053	-0.046280216
87	0x3bbf3fb3	0.005836451
88	0x3d98bb14	0.07457557
89	0xbdadf482	-0.08493902
90	0x3da854b5	0.082192816
91	0xbb80fc11	-0.0039362987
92	0x3d944b98	0.07240981
93	0xbdb303df	-0.08740973
94	0xbcecf25e	-0.028924163
95	0x3d64ceb1	0.05586118
96	0xbd00708d	-0.031357337
97	0xbd8c2362	-0.06842686
98	0x3d3b3acb	0.045710366
99	0x3d9d3ea3	0.07677963
100	0xbc76f1b2	-0.015072273
101	0xbdaf387f	-0.08555698
102	0xbd430037	-0.047607627
103	0x3daceff8	0.08444208
104	0x3d33d6d3	0.043906044
105	0x3d0ed301	0.034869198
106	0x3d261c34	0.04055424
107	0xbd1c691e	-0.038186185
108	0xbd42f521	-0.047597054
109	0xbd98f449	-0.07468469
110	0xbcce383a	-0.025173295
111	0x3d3b19ea	0.04567901
112	0x3d521ba9	0.05129591
113	0x3d9c3920	0.07628083
114	0x3c92aaa0	0.017903626
115	0xbce2a6e2	-0.027667467
116	0x3aa395ee	0.0012480596
117	0xbd0443c6	-0.032291196
118	0xbd0ad543	-0.03389479
119	0x3cc842f1	0.024445983
120	0x3d5e7a70	0.054315984
121	0x3d468c8c	0.04847388
122	0xbbc3bf27	-0.005973715
123	0xbdaaa071	-0.08331383
124	0xbd3abeb6	-0.045592032
125	0xbc8f9087	-0.01752497
126	0x3d12ec60	0.035869956
127	0x3ca0859e	0.019594964
128	0xbe3965d8	-0.18105257
129	0xbd49bdd4	-0.0492533
130	0xbcf1a7c7	-0.029498948
131	0xbcc515e1	-0.024058284
132	0x3dfc942c	0.12332949
133	0xbd7948d9	-0.06086049
134	0xbdad75ca	-0.08469732
135	0x3a07f4e6	0.0005186334
136	0xbd5594ef	-0.052143987
137	0x3d76f427	0.060291436
138	0x3e071fe7	0.13195764
139	0xbd88b165	-0.0667446
140	0x3d389f59	0.04507384
141	0x3da83b7e	0.08214472
142	0xbdf60e5d	-0.12014458
143	0xbbba54c5	-0.005686375
144	0x3c067d88	0.00820864
145	0xbdf762f3	-0.1207942
146	0x3d639ac7	0.05556753
147	0xbd8488e1	-0.0647142
148	0x3e0ee8d9	0.13956012
149	0x3dca6da4	0.098841935
150	0xbdf02c97	-0.11727255
151	0xbdab114a	-0.08352907
152	0x3d6de125	0.058076043
153	0x3d8b058d	0.06788168
154	0x3dc5b110	0.096529126
155	0xbd815c19	-0.06316394
156	0xbdd8b826	-0.105819985
157	0x3dfbb0b6	0.12289564
158	0x3c63b9e6	0.013899302
159	0xbde22778	-0.11042684
160	0xbd793a87	-0.06084683
161	0x3dcc2680	0.09968281
162	0x3e28b5ab	0.16475551
163	0x3df044f8	0.11731905
164	0x3cefbdc2	0.029265288
165	0xbc5837b3	-0.0131968735
166	0xbe02d52a	-0.12776628
167	0x3d8d2b7a	0.06893058
168	0xbe1a8225	-0.15088709
169	0xbc8afd6f	-0.01696655
170	0x3e06ca1c	0.13163036
171	0x3d919cf3	0.07110014
172	0xbe0d3fa2	-0.13793805
173	0xbd497c08	-0.04919055
174	0x3e17a8e3	0.14810519
175	0x3d6b05b0	0.05737847
176	0xbe16d98e	-0.14731428
177	0x3db3a457	0.0877158
178	0x3dd756e3	0.10514619
179	0x3decc6e6	0.11561374
180	0xbda7f530	-0.08201063
181	0x3d5b8bc6	0.053600095
182	0x3d5c3d07	0.053769138
183	0xbdf9f646	-0.12205176
184	0x3dce3f33	0.10070648
185	0xbda7a7d7	-0.0818631
186	0x3d3cca70	0.046091497
187	0x3dfaf4be	0.12253712
188	0x3cccd323	0.025003022
189	0x3e4970c1	0.19671918
190	0xbd490149	-0.04907349
191	0xbdb6adf7	-0.089199
192	0x3c879507	0.016550554
193	0xbd9952a2	-0.07486464
194	0xbbc2b0ea	-0.0059415
195	0xbc696a4f	-0.014246537
196	0x3c1c055b	0.009522761
197	0xbdd67d4e	-0.10473119
198	0x3ca742c4	0.020417579
199	0xbb1b00c6	-0.0023651584
200	0xbb99eac1	-0.0046971743
201	0x3e18a03c	0.14904875
202	0xbdd58c88	-0.10427195
203	0xbd8b9133	-0.06814804
204	0x3d10158a	0.03517679
205	0x3dbee72f	0.093214385
206	0x3de8851b	0.11353513
207	0x3df216ea	0.11820777
208	0x3d85e2eb	0.06537422
209	0xbd1f46a5	-0.03888573
210	0xbc168522	-0.009187015
211	0xbdc09738	-0.09403843
212	0xbd0b0a67	-0.033945467
213	0x3d4a2b6f	0.049357828
214	0xbe17bfd7	-0.14819275
215	0x3d8fa7ea	0.07014449
216	0xbd36d3fd	-0.04463576
217	0xbd6184b6	-0.055058204
218	0x3db076ed	0.08616433
219	0x3bba97b6	0.005694355
220	0x3e070e02	0.13188937
221	0x3ca50cb2	0.020147655
222	0xbd789ba7	-0.060695317
223	0x3d9718e0	0.073777914
224	0x3d36b3c2	0.044605024
225	0xbd29a75c	-0.041419372
226	0x3d6bb08a	0.057541408
227	0x3d1fdeeb	0.03903095
228	0xbd0429d5	-0.032266457
229	0x3c8bfac0	0.01708734
230	0x3d416e1c	0.04722415
231	0xbc95645d	-0.018236334
232	0x3d83b5b5	0.06431142
233	0x3d922e9b	0.071377955
234	0x3e4bf9de	0.19919536
235	0x3e4371a7	0.19086324
236	0xbd4304ca	-0.04761199
237	0x3d4b00b0	0.049561203
238	0xbc7b9ada	-0.015356744
239	0xbd34c5cd	-0.04413395
240	0x3d80b8c9	0.06285245
241	0x3cba3728	0.022731379
242	0x3cb97d42	0.022642735
243	0xbd7085c2	-0.05872131
244	0x3cdf337e	0.027246233
245	0x3c0ab000	0.008464813
246	0xbd503a49	-0.050836835
247	0x3dcaf172	0.09909333
248	0x3d07525d	0.033037532
249	0x3d3369dc	0.043802127
250	0x3d8c07b7	0.06837409
251	0xbc9c4b81	-0.019078972
252	0x3cf90223	0.030396527
253	0x3bf81bd1	0.0075716753
254	0x3dbd722e	0.09250294
255	0x3d14282f	0.036171135

bias f4 [64]
0	0xbd86d022	-0.06582667
1	0xbd97bab3	-0.07408657
2	0x3dfaa365	0.12238196
3	0xbcc49d74	-0.02400086
4	0x3d4bbc2b	0.049739998
5	0x3db1b278	0.08676618
6	0x3cf1e6a3	0.029528921
7	0x3d362c67	0.04447594
8	0xbbfc55ee	-0.0077006733
9	0xbd25bfd2	-0.040466137
10	0xbcc32656	-0.023821991
11	0x3d43d708	0.04781249
12	0x3da8b2ae	0.082372054
13	0x3db8e2f8	0.09027666
14	0x3d40e24f	0.047090825
15	0x3c9c5a7d	0.019086117
16	0xbd2bc698	-0.04193744
17	0x3db4d0cc	0.08828887
18	0x3d51b490	0.05119759
19	0xbc683656	-0.014173111
20	0x3d93d8b7	0.072190695
21	0xbd974c42	-0.07387592
22	0xbcea41b6	-0.028595787
23	0x3de32a9c	0.110921115
24	0x3d1a6f60	0.03770387
25	0x3cd732f6	0.026269417
26	0x3d3e0975	0.046395738
27	0x3cfbcfa9	0.030738669
28	0x3d092564	0.033482924
29	0xbd2f6f17	-0.042830553
30	0x3d713ec1	0.058897737
31	0xbcfe215d	-0.031021768
32	0x3d4d2c2f	0.050090965
33	0x3cdeb837	0.02718745
34	0x3cf02eb2	0.029319141
35	0x3d19a367	0.03750935
36	0x3c44f78a	0.012021909
37	0xbd80d177	-0.06289952
38	0xbc8d37fc	-0.01723861
39	0x3cc4d137	0.024025543
40	0xbdb99fe2	-0.09063698
41	0x3d973b8a	0.07384403
42	0xbd1ed33d	-0.03877567
43	0x3d530b0d	0.05152421
44	0x3d10b049	0.03532437
45	0x3d91eb4d	0.07124958
46	0xbbdfc461	-0.00682883
47	0x3d2f3264	0.042772666
48	0x3d2406c8	0.04004553
49	0xbd8d8d61	-0.069117315
50	0xbc30870f	-0.010774388
51	0x3d6566de	0.056006305
52	0x3d72096e	0.059091024
53	0x3d3593ba	0.044330336
54	0xbdb47b83	-0.088126205
55	0x3d8424b1	0.06452311
56	0x3d03052c	0.031987354
57	0x3cc33aec	0.023831807
58	0xbd2bd9aa	-0.041955628
59	0xbd8fba14	-0.070179135
60	0x3d4f1225	0.050554413
61	0xbd027ca7	-0.03185716
62	0xbd7f24b3	-0.06229086
63	0x3d0d2352	0.034457512

weight f4 [10, 64]
0	0xbcf62743	-0.030048018
1	0x3edd2bdb	0.43197522
2	0xbd8d9b07	-0.06914335
3	0x3e4cd607	0.2000352
4	0xbe173ca3	-0.14769225
5	0x3e8626fb	0.26201615
6	0x3c15a4cc	0.009133529
7	0x3dae6070	0.08514488
8	0x3d2abc40	0.041683435
9	0xbe2f6ec5	-0.17132099
10	0xbe3f65e3	-0.1869121
11	0x3d67df6b	0.056609552
12	0x3d9670f0	0.0734576
13	0xbe955526	-0.29166526
14	0xbe487d38	-0.19579017
15	0xbda34835	-0.07972757
16	0x3e8a4462	0.27005297
17	0x3ed15812	0.40887505
18	0x3dfd9dc5	0.12383608
19	0x3ce6bb6a	0.028165538
20	0x3ee66b84	0.45003903
21	0x3c9e31c4	0.01931084
22	0xbe561575	-0.20906623
23	0x3e80f9a5	0.25190464
24	0x3e6525b2	0.22377661
25	0x3edb4a8e	0.42830318
26	0x3e238bc2	0.15971282
27	0xbbf7f974	-0.007567579
28	0xbe7afb05	-0.24509819
29	0xbeb95c40	-0.36203194
30	0x3c3ea1d2	0.011635261
31	0xbeabca41	-0.33552745
32	0xbe3499ee	-0.17636845
33	0xbd1d9cc6	-0.03847959
34	0x3e996725	0.29961506
35	0x3e84e393	0.25954875
36	0x3c1b279f	0.009469896
37	0xbcb69903	-0.022289759
38	0xbe35c65c	-0.1775145
39	0xbc1d8807	-0.009614951
40	0xbd8e838e	-0.06958686
41	0xbe5e4733	-0.21706848
42	0xbe7c17c1	-0.24618436
43	0xbec09951	-0.3761697
44	0xbdd6cc2f	-0.10488164
45	0xbdf4ee25	-0.11959485
46	0x3e056a88	0.1302892
47	0xbe260dcd	-0.16216202
48	0x3d426051	0.047455136
49	0x3e849a1d	0.2589883
50	0x3b4feadf	0.0031725687
51	0xbe1823e6	-0.14857444
52	0xbe1f11c2	-0.15534118
53	0xbccb8bce	-0.024846938
54	0x3e445442	0.19172767
55	0xbe13dbcf	-0.14439319
56	0xbebc1641	-0.36735728
57	0x3d3f4be9	0.046703253
58	0x3efb2d48	0.49057984
59	0x3c600d79	0.013675087
60	0xbda323aa	-0.07965787
61	0x3c6f41e1	0.014603109
62	0xbece6c10	-0.4031682
63	0xbe1c55b6	-0.15267071
64	0x3c73aecb	0.014873217
65	0x3d2d3bfb	0.04229353
66	0xbeee5c0d	-0.46554604
67	0x3ee6d83c	0.4508685
68	0xbea5935d	-0.32338992
69	0xbf07fe43	-0.5312235
70	0xbe25fa67	-0.16208802
71	0xbe91e000	-0.2849121
72	0xbe701fbc	-0.23449606
73	0x3e1ab812	0.1510928
74	0x3e5adc6d	0.21373148
75	0x3d07e9dc	0.03318201
76	0xbd337080	-0.04380846
77	0xbe7f0eec	-0.24908036
78	0xbeaca9e0	-0.33723354
79	0xbd8aafa6	-0.067717835
80	0x3d3d3d4c	0.046201035
81	0xbeb2a139	-0.34888628
82	0xbe01b022	-0.12664846
83	0x3dea2ed7	0.11434715
84	0xbde4c254	-0.11169878
85	0x3d47bc56	0.048763596
86	0xbef604a2	-0.4805041
87	0x3b92c947	0.0044795605
88	0x3e3174c1	0.17329694
89	0xbc4a3aa2	-0.012343081
90	0x3e5f26b0	0.21792102
91	0xbcb0c6a7	-0.0215791
92	0x3f0ad73a	0.5423466
93	0xbe1b7e66	-0.15184936
94	0xbe84e5cd	-0.25956574
95	0x3e94642c	0.28982675
96	0x3ddb3275	0.10702983
97	0x3e04e0b8	0.12976348
98	0x3e5b4d4f	0.2141621
99	0x3ea06200	0.31324768
100	0xbe26dd18	-0.16295278
101	0xbdd92558	-0.10602826
102	0xbc95d436	-0.018289667
103	0x3e942ff6	0.2894284
104	0xbdc33303	-0.09531214
105	0x3e643501	0.22285844
106	0xbd22376b	-0.039603632
107	0x3e8f2b74	0.2796284
108	0xbe2f094d	-0.17093392
109	0x3d9f7072	0.07785119
110	0x3e0f5342	0.13996604
111	0xbd3d3445	-0.046192426
112	0x3e79cb4d	0.2439396
113	0xbd022d07	-0.031781223
114	0xbd595c99	-0.053066824
115	0xbe21293f	-0.1573839
116	0x3e864caf	0.2623038
117	0x3e1c5153	0.15265398
118	0x3bd8c7cb	0.006615614
119	0x3e0a67e9	0.13516201
120	0x3ecb0d69	0.3965867
121	0x3e940b1d	0.2891473
122	0xbeb24034	-0.34814608
123	0xbda94b7c	-0.082663506
124	0x3ec98f2a	0.39367038
125	0xbe059844	-0.13046366
126	0x3eb2d55d	0.34928408
127	0x3e2e26fa	0.17007056
128	0x3d915d8b	0.0709792
129	0xbe501feb	-0.20324676
130	0xbf2aa4f2	-0.66657937
131	0x3ecdf910	0.40229082
132	0x3e4a1532	0.19734648
133	0xbe3278af	-0.1742885
134	0x3dd0796d	0.1017941
135	0x3f0e117e	0.5549544
136	0x3d6804ab	0.056645077
137	0x3dab6b14	0.08370033
138	0xbca9e65f	-0.020739732
139	0xbea4e8f9	-0.32208994
140	0x3e5cf2b2	0.21576956
141	0x3e8b71c5	0.27235237
142	0x3e7047c7	0.23464881
143	0xbdb53f1e	-0.08849929
144	0x3df5d3e9	0.12003309
145	0x3eb843fa	0.35989362
146	0x3e3a19ff	0.18173979
147	0xbdcb8a97	-0.09938543
148	0xbdd779e8	-0.10521299
149	0x3cde87a5	0.02716429
150	0xbe9eab41	-0.3099003
151	0x3d2f0672	0.042730756
152	0xbda2b35e	-0.07944368
153	0xbeb44d7e	-0.35215372
154	0xbdb04de5	-0.08608607
155	0x3e03be2d	0.12865515
156	0x3eda880c	0.4268192
157	0x3bcc3a6d	0.006232551
158	0x3ec40a4c	0.38289106
159	0xbef201f6	-0.4726712
160	0x3e620dca	0.22075573
161	0xbdc4857b	-0.09595772
162	0xbe33a487	-0.17543231
163	0x3df345d4	0.11878553
164	0xbdae9d06	-0.085260436
165	0xbdceaa62	-0.10091092
166	0x3e7c1938	0.24618995
167	0x3e7016a2	0.23446134
168	0x3d27ab0b	0.040934604
169	0xbd2a4185	-0.04156639
170	0xbdfae664	-0.12250975
171	0x3eba863e	0.36430544
172	0x3c584841	0.01320082
173	0xbd875259	-0.066075034
174	0xbe14ede9	-0.1454388
175	0x3d7c39bf	0.06157851
176	0xbe9fc231	-0.31202844
177	0x3d7fc843	0.062446844
178	0x3e1ac295	0.1511329
179	0xbd82a3d5	-0.06378905
180	0x3da3b711	0.079939015
181	0xbe20bd54	-0.15697223
182	0x3eb655c8	0.3561232
183	0xbd4ebd4b	-0.050473493
184	0xbd6cfe97	-0.057859983
185	0xbd530d93	-0.051526617
186	0x3eca1e52	0.39476258
187	0x3dd000ed	0.101564266
188	0xbea128c0	-0.31476402
189	0xbe080438	-0.1328286
190	0xbe8074dd	-0.2508916
191	0x3e0aebb8	0.13566482
192	0x3e13a4cb	0.14418332
193	0x3e3b5df7	0.18297563
194	0xbe795eaa	-0.24352518
195	0x3e870f58	0.26378894
196	0xbe450367	-0.19239579
197	0x3e74a8e1	0.23892547
198	0x3cf4b8a0	0.029873192
199	0x3e95bcb9	0.29245546
200	0x3e2f95f2	0.17147043
201	0xbb8b53be	-0.004251926
202	0xbed2d65a	-0.41179162
203	0x3e81657a	0.25272733
204	0x3d381560	0.04494226
205	0x3f142031	0.5786162
206	0xbad993ba	-0.0016599812
207	0x3d43b339	0.047778342
208	0xbe90145a	-0.28140527
209	0xbee0f1fe	-0.43934625
210	0x3d4e8aef	0.050425466
211	0xbd975cf5	-0.07390777
212	0xbebad2da	-0.36488992
213	0xbc59eba7	-0.013300813
214	0x3e488a96	0.19584116
215	0x3e32a318	0.17445028
216	0x3e848fcc	0.25890958
217	0xbec166b2	-0.37773663
218	0xbeafc5f0	-0.34330702
219	0x3d00bb02	0.031428345
220	0x3c0b7101	0.008510829
221	0xbef4c925	-0.4780971
222	0x3ed74e1e	0.42051786
223	0x3e83b9dc	0.25727737
224	0xbec9c8d4	-0.39411032
225	0x3efed2bc	0.49770153
226	0x3d810ac3	0.06300881
227	0xbda7385b	-0.08165046
228	0x3de7ebfc	0.11324307
229	0x3e8d1180	0.27552414
230	0xbe329a38	-0.17441642
231	0xbd440661	-0.047857646
232	0xbdb4770d	-0.0881177
233	0xbe976c73	-0.29574928
234	0x3e29e6ee	0.16591999
235	0xbcc45c3d	-0.023969764
236	0xbe07a491	-0.13246371
237	0x3dc79537	0.09745257
238	0xbc46dc2a	-0.012137452
239	0x3eabcf36	0.33556527
240	0xbd20398c	-0.03911738
241	0xbe66ab7a	-0.2252635
242	0xbdc6ebbd	-0.09712932
243	0x3e4f66ff	0.20254134
244	0x3d9a634b	0.0753847
245	0xbda2c366	-0.079474255
246	0x3e42ff1c	0.19042629
247	0xbe0118a9	-0.12607063
248	0x3b1a106a	0.0023508319
249	0xbeacd90b	-0.3375934
250	0xbeaec1d4	-0.34132254
251	0x3bea6a50	0.0071537867
252	0xbc164f37	-0.00917416
253	0x3dfef37f	0.12448787
254	0x3ed611a8	0.41810346
255	0xbddf0dcc	-0.108913034

bias f4 [10]
0	0x3c85887f	0.016300438
1	0xbdc81dd1	-0.09771312
2	0xbd89d718	-0.06730479
3	0xbc815162	-0.015785877
4	0x3e0e1118	0.13873708
5	0x3dbfb5f0	0.09360874
6	0x3d7239a2	0.059136994
7	0xbdafd114	-0.085848
8	0x3e0b1cbb	0.13585179
9	0x3e0a157e	0.13484761
