init_mnist_model.pt (torch_old, 447167 bytes, 6 tensors)

weight f4 [128, 784]
000000 db 43 ba bb 3e dd 73 3c 79 90 bb bc e0 27 e9 bc
       -0.0056843585 0.014884291 -0.022896038 -0.028461397
000010 43 05 44 bb 2f 5a f8 bc 8a e5 93 3a d2 ad ca ba
       -0.0029910363 -0.03031644 0.0011283618 -0.001546318
000020 b9 57 e0 3c 91 57 d7 3c c4 fb 81 3c b4 16 13 3b
       0.02738558 0.026286872 0.015867122 0.0022443952
000030 da 24 94 bb ad b5 d2 bc 66 8f 77 3b 87 5f cc 3c
       -0.0045209946 -0.025721395 0.003777468 0.024947895
000040 d0 1f 15 bb b1 61 11 bd bf 06 e0 bc 97 f2 44 3c
       -0.0022754557 -0.035493556 -0.027346967 0.012020729
000050 65 a9 c0 3c 68 16 9c bb 2c 51 6d 3b 51 b0 da 3c
       0.023518274 -0.004763413 0.0036211712 0.026695402
000060 8d aa 09 bc 30 a2 50 3b c2 12 80 bc e7 29 f8 3c
       -0.008402479 0.0031834953 -0.015633944 0.030293418
000070 90 9f 01 3c e3 51 fa bc f5 b4 f1 3c c6 90 a3 bc
       0.007911578 -0.030556625 0.029505232 -0.019966494
000080 3d 57 aa 3c dd aa 02 3d 4b 93 2b bb 36 a4 a4 3c
       0.020793552 0.03190123 -0.0026180323 0.020097833
000090 c1 77 9a 3c 12 74 30 bb 83 f7 66 bb 6d d8 11 3c
       0.018855931 -0.0026924652 -0.0035242743 0.008901698
0000a0 8d 67 5b bc b5 0c cd 3b 8e 96 0c 3b 4d e8 8c 3c
       -0.013391388 0.0062576183 0.0021452042 0.017200613
0000b0 61 73 b2 3c c2 21 a1 bc 51 c2 c1 bb 84 97 a1 3c
       0.021783533 -0.019669417 -0.005913057 0.019725569
0000c0 63 37 ba bc 11 08 0d bd 99 5b ee 3c 50 1b 5f 3c
       -0.022731489 -0.03443152 0.029096412 0.013617352
0000d0 79 d7 fa 3c 53 2a b2 3b 32 0e 4c bc 7b 74 5a bc
       0.030620323 0.0054371743 -0.012454556 -0.013333435
0000e0 ea 6b e2 ba 45 2a ed 3c 33 29 20 bc f9 2a 2e bb
       -0.0017274593 0.02895082 -0.009775448 -0.0026575907
0000f0 36 e8 03 3d e2 e7 08 3d 01 83 02 3d c7 4b de 3c
       0.032203875 0.033424266 0.031863216 0.027135743
000100 10 9d d6 3c 90 37 1c 3d fc df df 3a 8f d2 77 bc
       0.02619794 0.038138926 0.0017080302 -0.015125885
000110 cc 2e c1 bc f2 5a de bc 43 03 b7 ba 32 b4 19 bd
       -0.023581885 -0.027142975 -0.0013962764 -0.037525363
000120 e6 f8 ef 3a 13 25 e3 bc 15 b9 1a 3c d9 bb a1 3c
       0.001830843 -0.02772764 0.009443541 0.019742893
000130 95 f9 dd bc 00 4b cc bc f2 24 c7 3c 8b 00 04 bc
       -0.027096549 -0.024938107 0.02430961 -0.00805677
000140 86 92 81 bb ac 37 9c 3b cf f9 a8 bc 70 5d 46 bb
       -0.0039542345 0.004767379 -0.02062693 -0.0030268095
000150 60 47 fb bc 2a 1d ec bb 2a b8 7c 3c 52 d4 0d 3d
       -0.030673683 -0.007205625 0.0154247675 0.034626313
000160 85 0c a7 bc 0b 2c 83 bb 0f cf 01 bd ac b2 fb 3a
       -0.020391712 -0.004003053 -0.031691607 0.0019203029
000170 8c 66 11 3d c8 78 2f 3d b0 72 10 3d e9 f8 89 3c
       0.035498187 0.042839795 0.035265625 0.016842322
000180 5c 43 0b 3d 7a 61 c1 3b 8e 5e 16 bd 94 a4 52 bd
       0.033999786 0.0059015127 -0.036711268 -0.051426485
000190 84 4a f3 bc 6e c9 fc bc a0 1c 80 bd ee 81 24 bc
       -0.029698618 -0.030857768 -0.0625546 -0.010040743
0001a0 33 dd 19 3b c5 f5 9a bc f5 a6 3a 3c 5c d5 8b bc
       0.0023477792 -0.01891602 0.011392345 -0.017069511
0001b0 ad 33 49 3c 28 6d aa bc 99 12 fc bc 42 11 0a bd
       0.012280387 -0.020804003 -0.030770587 -0.033707865
0001c0 10 4d 93 3c db 69 89 ba 30 ea 9c bb 71 d6 d6 3c
       0.017981082 -0.0010483818 -0.0047886595 0.0262253
0001d0 e7 35 05 3d 2b 83 0c 3d 00 ff 28 3c c1 34 81 bc
       0.03252211 0.03430478 0.010314703 -0.015772225
0001e0 f2 7d 51 3d e8 d0 a5 3b c9 04 20 bc 71 fb 5d 3d
       0.0511455 0.005060304 -0.009766766 0.05419487
0001f0 49 56 1d 3c 67 4a a4 3b 9e c2 80 bd 2b 11 48 bd
       0.0096030915 0.0050137523 -0.0628712 -0.048844498
000200 b5 47 da bd e9 d1 a2 bd 0c 49 3c bd 1d 4e 39 ba
       -0.10658208 -0.079501934 -0.0459681 -0.000706883
000210 19 ee 33 bd 19 d3 54 3c ad 01 2b bd a1 78 2c bc
       -0.04392824 0.012989783 -0.041749645 -0.010526807
000220 db 55 fc bc 93 e3 5f 3c 0a b9 be bc 3d da 0c 3d
       -0.030802658 0.013665098 -0.023281593 0.034387816
000230 3e 20 97 3c ad 53 b7 3c 3a 5d 74 bc 67 62 a9 bc
       0.018447991 0.022378767 -0.014914805 -0.020676805
000240 07 cd cb bc c0 d6 92 3c 93 70 4a 3c 6d c9 0a bb
       -0.024878038 0.017924666 0.012355941 -0.0021177188
000250 29 b7 92 3b 2d 7c 81 3b 81 ef 39 3d 5c 09 56 3d
       0.004477401 0.0039515705 0.045394424 0.05225502
000260 9c dc e8 3c 25 91 93 3a 45 dd f5 bc 2c e2 3d 3c
       0.028425507 0.0011258466 -0.030012736 0.011589568
000270 da 5f 29 bc 17 73 2c bd 9b 62 8f bd 85 70 17 bd
       -0.010337794 -0.042101946 -0.070012294 -0.03697254
000280 50 64 db 3b 88 89 2c bd dc cf 4f bd d4 71 41 bc
       0.006695308 -0.042123348 -0.05073534 -0.011806924
000290 f0 ed 24 39 c9 bf 69 3c c3 66 b7 3c 4d 3d 47 3c
       0.00015728897 0.014266917 0.022387868 0.012160611
0002a0 14 c1 b8 bc 95 c0 10 3c e8 f2 80 ba 57 6e 91 bc
       -0.022553004 0.008834978 -0.0009838017 -0.01775281
0002b0 35 c7 0f bb 1c 55 f3 3c 4c 85 b0 bb f0 1e cc 3c
       -0.0021938805 0.02970367 -0.005386984 0.024917096
0002c0 23 df af 3b 8b af 40 3d ef d4 5e 3d f4 45 8f 3d
       0.005367176 0.04704241 0.054402288 0.069957644
0002d0 1b 6b 8b 3d f4 17 ce 3d d8 b1 02 3e 97 da d8 3d
       0.06807538 0.100631624 0.12763155 0.10588568
0002e0 8b d1 5c 3d b2 cd 44 3b 77 10 9e bc 9a f7 8c bd
       0.053910773 0.003002983 -0.01929496 -0.06883164
0002f0 8b 2f 21 bd 01 5e 84 bb 93 a8 11 bb 7b 78 2a bd
       -0.03935198 -0.0040395265 -0.0022225722 -0.041618805
000300 c5 c8 62 ba 33 5b 17 bd c8 ed b8 3c a6 e5 0e 3c
       -0.0008651133 -0.03695221 0.02257432 0.008721745
000310 24 eb a4 3a 6a a6 f4 3b 6e 6f b8 bc ce 57 2e 3d
       0.0012582284 0.007466127 -0.022514071 0.042564206
000320 b9 7d f5 bb 57 70 1f ba 77 f5 4d 3c 6f 6e 22 3c
       -0.007491794 -0.00060821086 0.01257073 0.009914025
000330 e0 33 9d 3d 38 27 b4 3d 7b 7d 8d 3d b6 35 ab 3d
       0.0767591 0.08796543 0.06908699 0.08359854
000340 ab ec aa 3d 1a 14 0e 3e 70 53 4c 3e 5a ca ec 3d
       0.08345922 0.13874856 0.19953704 0.11562033
000350 7c ad 96 3d bf 08 51 bd 35 b8 28 bc 16 bf 8f bd
       0.07357308 -0.05103373 -0.010297825 -0.070188686
000360 21 21 89 bd 6e 6f 05 bd 3e 99 5e bd 20 7d 57 bd
       -0.06695772 -0.03257697 -0.054345362 -0.052609563
000370 8f 88 81 bd c6 22 ad 3b 90 74 eb 3c dc 28 20 3c
       -0.063248746 0.0052836863 0.028742105 0.009775367
000380 94 9c d1 3c 5e e9 c1 bc c4 8e b7 bc ff 62 1c 3a
       0.025587358 -0.023670848 -0.022406943 0.00059656793
000390 53 c8 f1 bb 18 cb 98 3c 68 c9 88 3c 80 d3 55 3d
       -0.007378617 0.01865153 0.0166976 0.052203655
0003a0 39 13 87 3d 38 1d ba 3d 58 8c fa 3d 36 9d ef 3d
       0.06595463 0.09087604 0.122338 0.116999075
0003b0 a6 31 15 3e a5 22 19 3e 46 a7 02 3e 74 97 30 3d
       0.1456972 0.14954622 0.12759122 0.043113187
0003c0 f4 53 12 3d df 0f bc 3c e9 01 6a bc e7 0c 6e bc
       0.035724595 0.022956787 -0.014282682 -0.014529443
0003d0 55 59 7d bd c0 c2 a4 bd 4a 2a 40 bd 13 6b 1b bd
       -0.06185277 -0.08044958 -0.04691533 -0.03794391
0003e0 21 7a 10 bd ca e7 89 bc 67 93 d0 3b c3 d9 75 3c
       -0.03527272 -0.016834158 0.006365228 0.015005532
0003f0 d2 41 3e bc c2 3f 31 bc 99 c9 b6 bc 95 bd 91 bb
       -0.0116123725 -0.010818424 -0.022312926 -0.004447649

bias f4 [128]
000000 e0 3d 3d bc 5f 56 21 3c 13 10 22 bc d0 7d 2b bd
       -0.011550397 0.009847253 -0.009891528 -0.04186803
000010 fa e2 19 bd 2e 6d ce bb 5e d1 d2 39 91 f1 dd 3c
       -0.037569977 -0.0062996363 0.00040210312 0.027092727
000020 85 70 92 3a 34 a3 b2 3c 5c eb fb bc 8c 40 a6 bb
       0.001117245 0.021806337 -0.030751877 -0.0050736126
000030 79 5d 1d 3d a5 7b bf 3c c3 4b 08 bd e3 23 05 bd
       0.03841922 0.023374388 -0.033275377 -0.032504927
000040 ff f5 00 bd 26 bd 0d bd ac e9 67 3c 7a b4 94 bc
       -0.0314846 -0.034604214 0.014154833 -0.018152464
000050 bc e3 81 bc c3 ad 80 bc 2d a0 bc bc 7c 1b 59 3b
       -0.015855663 -0.015707856 -0.023025597 0.0033127954
000060 fe 58 da bc c5 cc d1 3c 93 f2 f3 bb 27 5f db 3c
       -0.026653763 0.025610337 -0.0074446886 0.02677877
000070 79 b4 f0 bc 48 77 d1 3b 3e 7d 90 bc 0c a6 f7 bc
       -0.029382931 0.0063923933 -0.017637845 -0.030230545
000080 6b ab 0e ba 35 f6 c3 bc d8 0c 9a 3c 11 87 cd 3c
       -0.00054424134 -0.023921112 0.018804953 0.025088819
000090 41 61 27 3c b7 7c 58 3c 3c 11 50 3c 2f d5 b2 bc
       0.010216058 0.013213328 0.0126994215 -0.02183017
0000a0 6d ed bc 3c 3d 12 a1 3b c4 2b fc bb 94 ff fe 3b
       0.023062432 0.0049155043 -0.007695647 0.007781932
0000b0 11 08 93 bc d9 b8 4c 3b 63 0f 83 3c 18 34 ea bc
       -0.017948182 0.0031238107 0.015998548 -0.028589293
0000c0 39 4c c6 bb 19 9e a8 bc 3e e0 ce bc 35 70 b1 3c
       -0.006051567 -0.0205832 -0.025253411 0.02165995
0000d0 d0 5a 83 bc 41 bc a8 3b a0 d8 d4 bc 36 23 51 bc
       -0.016034514 0.0051493947 -0.025982201 -0.012764743
0000e0 7d c5 07 bd 83 44 bb 3c cf f7 c9 3c c1 08 55 bc
       -0.033147324 0.022859817 0.024654297 -0.013002575
0000f0 f3 32 d8 3c cd 4d 68 3c ef 7a c1 ba a9 e9 a3 bb
       0.026391482 0.014178705 -0.0014761369 -0.0050022197
000100 cf 58 f5 3b f4 72 d9 bc db b9 07 bd 1a d1 a2 bc
       0.0074873934 -0.026544072 -0.03313623 -0.019875098
000110 cc d2 94 bc 1e d5 bd 3b b0 fd 8a bc af ef 0e bd
       -0.018166922 0.005793228 -0.01696667 -0.03489655
000120 4f 58 d3 bb d5 8e 26 bc 74 28 5d bc da fe 49 3a
       -0.006449736 -0.01016589 -0.013498414 0.00077055173
000130 2c 29 11 3d a1 a9 db 3c b2 eb d9 bc e4 a7 9d bc
       0.035439655 0.026814284 -0.026601646 -0.019245096
000140 81 75 2c ba 26 7d a9 3c e8 a3 01 bd ce 48 94 bc
       -0.0006578789 0.020689558 -0.031650454 -0.018101122
000150 7b b2 6e 3c 6f 40 5b bc 47 52 a2 bc 55 f9 b6 3c
       0.01456892 -0.013382061 -0.019814624 0.022335688
000160 78 d2 fb 3c a8 bd 9f 39 70 10 cc bc 0b e2 04 3d
       0.030740008 0.00030468148 -0.024910182 0.032442134
000170 cc d3 9c bc 33 9a f9 bc 87 a5 f2 3a 4a 98 cf bc
       -0.019143961 -0.030469036 0.0018512466 -0.025341172
000180 2e 03 12 ba 77 fe 8b bc f9 81 cc bc 6c 00 1e 3c
       -0.0005569932 -0.017089112 -0.02496432 0.009643655
000190 66 61 c2 bc 84 f2 1c 3c a1 c7 c6 3c bc 91 93 3c
       -0.023728084 0.009579305 0.024265112 0.018013828
0001a0 2f 6e 7c bc 60 0c 93 bc c2 f9 82 bc 43 2b 98 3c
       -0.015407129 -0.017950237 -0.015988234 0.018575316
0001b0 d2 ae f7 3c f6 b3 7f 3b e6 6e 63 3c ab a9 c2 bc
       0.030234728 0.0039017177 0.013881421 -0.023762545
0001c0 b2 94 d6 3b 3f 28 12 bd ad 73 0b 3d ef a6 10 3d
       0.0065484876 -0.035682913 0.034045864 0.03531545
0001d0 7c 46 80 3c 74 77 0c bd 74 81 f0 3b d8 a4 02 bd
       0.01565861 -0.034293607 0.0073396508 -0.03189549
0001e0 f7 be 5d bc 21 4b f7 bc 73 bd 50 3b 8e bd 9c bc
       -0.013534299 -0.030187191 0.0031851202 -0.019133355
0001f0 a5 82 17 3d db 75 2a 3c 15 2c 1c 3d 15 ad 4a 3b
       0.036989827 0.0104040755 0.038127977 0.003092592

weight f4 [64, 128]
000000 db 0e 46 3e 06 03 dc bd ee 2f e3 bd a8 64 e3 bd
       0.19341604 -0.10742764 -0.11093126 -0.11103183
000010 cc df 27 3d 99 36 7d bc 29 36 12 3e 39 74 f8 bd
       0.040984914 -0.015454912 0.14278473 -0.12131543
000020 7a d0 b5 bd 20 7f d8 3d fb 4b c6 3d 0c b5 39 bd
       -0.088776544 0.10571122 0.09682461 -0.045338675
000030 5d ec 05 3e bc a0 08 3e ca e1 46 3b 74 67 0c 3e
       0.13078447 0.13342565 0.0030346983 0.13711339
000040 bf 5d 06 3d 51 c6 a4 3b 81 45 ba 3d 47 52 a4 bd
       0.032804247 0.005028524 0.09095288 -0.08023506
000050 34 9f e3 3c 66 86 04 bc 46 1f 3b 3d 87 74 e6 3b
       0.027785875 -0.008088684 0.04568412 0.007032934
000060 c8 3e 47 3d 3e 5f 97 bd 63 42 ad 3d 91 f0 88 bd
       0.048643857 -0.07391213 0.08459928 -0.066865094
000070 38 73 3b bd 1f f6 49 bd af 18 02 3e 55 32 bf bd
       -0.045764178 -0.049306985 0.12704729 -0.09335772
000080 d4 96 0d bd 54 92 0f be 21 bd dc 3d 6b a6 a3 bd
       -0.03456767 -0.14020663 0.10778261 -0.07990726
000090 55 80 66 bd 3e 0a c0 bc db 6a 78 bd b2 4d e1 bc
       -0.05627473 -0.023442384 -0.06064878 -0.027502868
0000a0 43 ee 2b 3d 74 47 ff 3d 24 1a c2 bc 79 55 93 3c
       0.04197527 0.124648005 -0.023694105 0.017985092
0000b0 4a 22 98 3d 58 2b e9 3d 6b a9 41 3d 1e f2 2a 3d
       0.07428415 0.1138522 0.04728071 0.041734807
0000c0 da 77 9e bd 71 82 6e bc 82 47 5b 3c e4 4c 08 3e
       -0.077377036 -0.014557467 0.013383748 0.13310581
0000d0 75 f7 2c be be 2f 8c bd 19 a1 9c 3c a4 d1 0a 3e
       -0.16891272 -0.068450436 0.019119786 0.13556534
0000e0 6d 0e 01 be 23 eb 69 3e 00 6e 14 3e d9 bd a5 3d
       -0.12603159 0.22843604 0.14495087 0.08092851
0000f0 47 8b 77 bc b7 19 2f bc 02 d4 f2 3d 7d 0e 76 bd
       -0.01510889 -0.010687283 0.118568435 -0.06007241
000100 3a ee 1e 3d d8 c7 bd bd ef 4d ae bb e2 c4 4f 3d
       0.03880141 -0.09266633 -0.005319349 0.05072487
000110 2c 18 c3 3d 0a e0 8f bd 0c 82 b6 3d ff ed bd 3d
       0.09526095 -0.07025154 0.08911523 0.0927391
000120 45 8b ef 3d cb 8c b2 3b c7 b3 a7 3d 8d 2a a6 bc
       0.116964854 0.0054489127 0.08188587 -0.020283962
000130 dd 54 f2 bd 97 a8 13 3b 6d d6 b5 3c 65 dc 5b 3d
       -0.11832593 0.0022530907 0.022196973 0.05367698
000140 b1 e7 63 ba 63 c0 22 be d6 db b3 3d aa 21 58 3d
       -0.00086938875 -0.15893702 0.08782165 0.05276648
000150 dc 11 5b bd 11 f9 4b 3d 95 d8 54 3d 84 b6 1b 3d
       -0.05348383 0.049798075 0.05196436 0.038015857
000160 2c 18 b4 bc f1 ed 54 3e 94 24 f7 bd e8 bc c9 3d
       -0.021984182 0.20793892 -0.120675236 0.09850484
000170 9c ea 1b 3e 8f 54 84 3d 20 1a d4 bd 01 dc ae 3d
       0.15226215 0.06461441 -0.103565454 0.08538056
000180 ad 75 8e bd 2d 1b 04 bc e0 e9 4b bd 44 45 d4 3d
       -0.069560386 -0.00806312 -0.049783587 0.10364774
000190 7b a8 88 3d 98 75 c8 bc ed 38 c4 bd 57 97 55 bd
       0.0667276 -0.024470136 -0.0958117 -0.052146282
0001a0 7c ca 96 bd 35 6c 19 3d f4 db 44 3e c7 38 e3 3d
       -0.073628396 0.03745671 0.1922453 0.11094814
0001b0 19 1a db bd 55 2c 97 3d e9 e7 1e bd 29 60 ba bd
       -0.10698337 0.073815025 -0.038795386 -0.09100372
0001c0 88 a7 46 bc de 79 e5 3c 38 53 90 3d 69 d4 a5 3c
       -0.0121249035 0.028012212 0.07047123 0.020242887
0001d0 bf e1 84 3b 7f 57 87 bb d9 27 22 bc c9 25 39 3e
       0.0040552313 -0.0041303034 -0.009897196 0.1808082
0001e0 c3 2c 80 3c db e2 ad 3d 52 ba 20 bd b3 ff c0 3d
       0.015646344 0.08490535 -0.03924019 0.09423771
0001f0 3b 0a 25 bd 29 65 88 3d 35 b6 6a bd 55 24 fc 3d
       -0.04029296 0.0665992 -0.057302672 0.12311617
000200 ba 21 40 3d ce 5c c3 3c 88 88 4e 3d 52 e9 c9 3c
       0.046907164 0.023847964 0.050423175 0.024647389
000210 f9 8a 9d bd 83 f2 58 bd ad b7 2d bd 8e e3 93 bd
       -0.076925226 -0.052965652 -0.042411495 -0.07221137
000220 4d 8d 6b 3d e8 ef 65 bd d5 58 9f bd c7 87 47 3d
       0.0575078 -0.056136996 -0.07780615 0.04871347
000230 be 71 21 3d 1d 44 36 3d b4 60 2f 3c e5 fa a1 3c
       0.039415114 0.04449855 0.010704208 0.019772956
000240 77 16 fd ba 34 3f 6c bc a8 93 2d bd ae 7c f3 bc
       -0.0019309063 -0.014419366 -0.042377144 -0.029722538
000250 a9 f1 83 bd a7 52 1e 3b 7e ef 93 3c ca d6 fc bc
       -0.064425774 0.0024158151 0.018058535 -0.030864138
000260 20 2e ba bd be 68 a8 3d ba 6d 93 bc 31 5b b7 bb
       -0.09090829 0.08223103 -0.017996658 -0.0055955877
000270 4e 2a 20 bc 21 23 77 3d 49 74 83 bd ea d3 b1 bd
       -0.009775711 0.060336236 -0.06418664 -0.086829975
000280 fc 3f 44 bd ff 63 f5 3c a0 03 47 3d a6 33 0b bd
       -0.047912583 0.029954908 0.04858744 -0.033984803
000290 eb 73 ac bd b1 65 38 3c 89 59 b4 bd 3e 69 bd 3c
       -0.08420547 0.011254714 -0.0880614 0.023121472
0002a0 7e 7b 64 3d b4 07 81 3d fe 85 5e bd e7 42 85 bd
       0.055781834 0.063002974 -0.054327004 -0.06506901
0002b0 f0 f3 07 3c 57 30 a7 bd a7 43 96 3d d1 05 51 3d
       0.008297905 -0.08163517 0.073371224 0.051030938
0002c0 43 93 26 bd 45 7f ae bd 25 2a 4f 3d 77 ea 8d 3d
       -0.040667783 -0.085203685 0.0505773 0.06929486
0002d0 9e be 6f bd b3 a8 be ba 38 03 0d bd 9d 7c 88 bd
       -0.058531396 -0.0014546126 -0.034426898 -0.06664393
0002e0 ea 6c 82 bb 97 e4 9f 3d d1 bc ae bd 35 d2 cb 3c
       -0.0039802687 0.07807272 -0.085321076 0.024880508
0002f0 e4 48 2d bd 81 12 8a bd b9 fe f0 bc 45 dc 56 bd
       -0.042305842 -0.067418106 -0.029418336 -0.05245616
000300 9e 57 78 3b 0c 5b 46 bd b0 51 1c bd 62 21 1c 3d
       0.003789402 -0.048426673 -0.03816384 0.038117774
000310 40 1e 7e bb 30 6d f6 3c e5 05 69 bd 40 3e a0 bd
       -0.0038775355 0.030081362 -0.056890387 -0.07824373
000320 6d 3a 48 bd e2 7a d4 3c ba a8 9d 3d 22 b1 44 bd
       -0.048883844 0.025937501 0.07698198 -0.04802049
000330 8c d6 77 bd c9 b4 65 3d fa 8a 54 bd 23 13 7b bd
       -0.060507342 0.056080613 -0.05189035 -0.061297547
000340 47 7f 94 bd f0 f7 90 3d 7f b3 81 ba e2 83 49 bc
       -0.07250839 0.0707854 -0.0009895413 -0.01229951
000350 2b db 7e bd ec d8 f2 bc 1b 66 fa bc 8c 46 04 3d
       -0.062220734 -0.029644452 -0.030566266 0.03229384
000360 27 e5 57 bd 3e 5c 02 3d b6 43 f8 bc 0e a8 9d 3d
       -0.05270877 0.03182625 -0.030305725 0.076980695
000370 06 de a4 3d 7b cc 62 3d df a1 60 3d ad 59 8e bd
       0.0805016 0.05537079 0.054841872 -0.06950698
000380 eb ed 96 3d 09 56 b6 bc 71 bd 11 3d 87 b5 97 bd
       0.07369598 -0.022257822 0.035581056 -0.074076705
000390 39 ca a6 bd d8 66 9d bd dc 1c 78 3d 81 a1 dd bc
       -0.0814404 -0.076856315 0.060574397 -0.02705455
0003a0 22 a8 8c bd 07 4b 31 3d 07 8b 1d bd e3 c5 42 3c
       -0.06868006 0.043284442 -0.038462665 0.011888
0003b0 49 4c ce 3c fd f7 9f bb 87 0f 5c 3b a4 d0 b1 3d
       0.02518286 -0.0048818574 0.003357859 0.08682373
0003c0 4d 30 33 bb b7 51 a4 3d 6a 81 62 3d 29 98 88 bb
       -0.0027342022 0.08023398 0.0552992 -0.0041685295
0003d0 4c 5a 25 3d ae 20 1f 3d 84 38 b6 bc 0f b8 a0 3d
       0.040369317 0.038849525 -0.022243746 0.078476064
0003e0 fd 52 b6 bd ce 3e b4 bd 65 0d 34 37 e6 96 b7 bd
       -0.089025475 -0.088010415 1.0731955e-05 -0.089643285
0003f0 fb 4a b4 3c 40 e5 83 bd c3 75 77 3d 72 e6 54 bd
       0.02200841 -0.0644021 0.06041504 -0.051977582

bias f4 [64]
000000 27 14 1d bc 37 6b 5f 3d f7 01 36 bd e1 da b0 bd
       -0.009587324 0.054545607 -0.044435468 -0.08635498
000010 66 0b e3 bb 26 fb 79 3d be 76 91 3c 55 ee 2d bd
       -0.006928849 0.06103053 0.017756816 -0.04246362
000020 a9 f0 a7 bd e7 f0 1c 3d 20 af 61 3c 12 38 a0 3d
       -0.08200199 0.03831568 0.013774663 0.078231946
000030 f9 ce b6 3d 7c d7 0b bd 63 d1 ca 3d 6d e6 99 bc
       0.08926196 -0.03414105 0.099032186 -0.018786633
000040 5d 94 c8 bc a2 e0 27 3d 33 89 37 bc 8e ef 31 3d
       -0.024484808 0.04098571 -0.011202144 0.043441348
000050 b1 bd 25 3a aa 80 79 3c f8 e3 45 3d f0 e8 92 3d
       0.0006322517 0.01522843 0.04831311 0.071733356
000060 88 34 04 3d 83 14 89 bd fb 62 54 bd c8 e4 90 3d
       0.03227666 -0.066933654 -0.051852208 0.070748866
000070 85 8a 91 bd d1 09 8b bd 60 ad ad bb 01 74 37 3c
       -0.07106499 -0.06788982 -0.005300209 0.011197091
000080 77 df a7 3d f2 0f ae 3d d8 18 8d bd 53 6d 80 3b
       0.081969194 0.08499135 -0.06889504 0.0039192825
000090 b7 c5 89 3d 97 37 2c 3c 0d 09 31 bd 2a 97 a0 3b
       0.06727164 0.0105113005 -0.043221522 0.0049008327
0000a0 d3 3f d3 3c 06 38 a0 bd c5 e6 90 bd 99 c7 8b bd
       0.02578727 -0.078231856 -0.07075266 -0.068251796
0000b0 07 23 29 3c de ec 52 3b b6 17 8c 3d e2 d5 9e 3b
       0.010323293 0.003218464 0.0684046 0.004847274
0000c0 f5 c9 c8 bc c9 bb 34 ba 6a a7 e2 bb ba 87 2d bc
       -0.024510363 -0.0006894437 -0.00691693 -0.010591442
0000d0 4b 49 82 3c 67 58 11 3d 88 42 49 3d 88 7e ae 3d
       0.01590409 0.035484698 0.049135715 0.08520228
0000e0 75 1a 03 bc a0 0a fa bc f7 92 ed 3c 2e fa 4c 3d
       -0.008001913 -0.030522645 0.029000742 0.050043277
0000f0 83 0d 67 3b 8f a9 95 bd 77 93 d0 3d 52 46 ac bd
       0.0035255856 -0.07307731 0.10184377 -0.0841185

weight f4 [10, 64]
000000 be 52 03 be b5 7b fc bc 83 89 73 bc b1 88 67 bd
       -0.12824532 -0.030820707 -0.014864328 -0.056526843
000010 06 8b 49 3e e7 78 d5 3e df b2 e3 3c b2 40 dc bd
       0.1968194 0.41693804 0.027795253 -0.10754527
000020 77 cf b9 3e fb 11 c8 3e 31 b6 e6 bd 1a 2d 62 be
       0.36291096 0.39076218 -0.11265219 -0.22087517
000030 99 fa fe 3e aa e8 b6 3d c0 c2 ac 3e 30 9a 87 3e
       0.49800566 0.08931096 0.33742332 0.26484823
000040 40 86 f7 3e 09 d0 80 be 4e 12 30 3d 32 45 02 3e
       0.48344612 -0.25158718 0.042986207 0.12721708
000050 36 50 9c be c8 c5 36 3e 60 83 ac be e9 52 10 3e
       -0.30529946 0.17848885 -0.3369398 0.14094128
000060 ed 25 80 3d 45 e1 7d be 72 52 0b be cd 97 74 be
       0.06257234 -0.24792965 -0.13605669 -0.23886032
000070 c3 0d d1 bd 19 25 14 bd 89 1e 8c bd 5f 0b f1 bd
       -0.10207703 -0.03616819 -0.068417616 -0.11769747
000080 d6 74 c2 3d ff c1 98 be 4b 4d 83 3d db 0a af 3e
       0.09494941 -0.29835507 0.06411227 0.3418797
000090 f8 1e 5a bd 63 e8 f0 3d a0 f0 75 be 05 e4 25 be
       -0.05325219 0.11763074 -0.24017572 -0.16200264
0000a0 a7 c7 fc be 8d 42 34 3e f1 90 42 be ec 39 91 3d
       -0.49371073 0.17603512 -0.19000603 0.07091126
0000b0 61 de 01 3e 4e 65 9d 3d 1d 9e 33 be d6 76 30 bd
       0.12682487 0.07685338 -0.17540784 -0.04308208
0000c0 c5 bd 94 3d 74 cc 30 3e ad aa 18 3d 33 c9 f1 bd
       0.07262758 0.17265493 0.037272144 -0.11805954
0000d0 90 f4 83 3e cf b3 3b 3d 24 dc 77 be 26 28 e3 be
       0.25772524 0.045825776 -0.2420507 -0.44366568
0000e0 97 78 44 3a dd 2a da bd 1f 48 7f 3e 4e 35 0b be
       0.0007494776 -0.10652707 0.24929856 -0.13594553
0000f0 8f 6f 94 3c 6e 72 c6 bc 10 09 d0 be 31 a1 c0 bd
       0.018119602 -0.024224486 -0.40631914 -0.09405745
000100 95 82 1b be 7d 99 ce 3d 65 47 3a bd 0c b1 99 bd
       -0.15186532 0.10087869 -0.045478243 -0.07504472
000110 63 06 0e 3d 5b 8e ac be 5e ca d6 3d c7 d8 c0 3d
       0.03467406 -0.3370236 0.10487817 0.09416347
000120 94 dd 4c 3d 29 15 aa 3d a6 80 f2 3d 36 32 c5 3e
       0.050016 0.08304817 0.11840944 0.3851487
000130 7d d7 85 be 1f 61 ca be 62 5d 82 be c0 27 bf bd
       -0.26140967 -0.39527223 -0.2546187 -0.093337536
000140 d9 5c 57 3e 73 ec 31 bd 32 0b dc bd cd bb c6 3d
       0.21031512 -0.043438386 -0.10744323 0.09703789
000150 22 0b ae be 6d 98 c7 be e1 84 a0 3e b6 10 07 3e
       -0.3399287 -0.3898348 0.3135138 0.13189968
000160 8c 5b 9e 3d 0c fc 0e be 24 8c 8a be e7 bd 5b 3e
       0.07732305 -0.13963336 -0.27060044 0.21459161
000170 e9 8c 97 bc fa 26 96 3d 06 56 00 3d 29 71 92 bc
       -0.018499808 0.07331653 0.03133204 -0.017876225
000180 c3 ee e1 bd 5a 8f 41 be 75 78 fa bc 37 59 9c bd
       -0.11031868 -0.1890234 -0.030575017 -0.07634204
000190 70 e7 1a 3f 43 34 dc 3d c2 16 52 be f1 2e b0 be
       0.60509396 0.10752156 -0.20516494 -0.34410813
0001a0 91 2c cc 3e 9f cb 10 bd d2 14 ce 3e 1f 47 9d 3d
       0.3987775 -0.03535044 0.4025026 0.07679581
0001b0 32 ca b3 bd fc 76 3f be d7 d6 a7 be a6 45 75 3e
       -0.087788 -0.18697733 -0.32781097 0.2395235
0001c0 36 f8 d3 3c d9 6e 7c 3e 91 6f 8b bd e2 c3 ce 3e
       0.025875192 0.2465166 -0.06808389 0.40383822
0001d0 3b a6 ca bd 7f 9c 61 3d 51 9a b4 3e 28 94 c4 3e
       -0.09894987 0.055080887 0.35273984 0.38394284
0001e0 d1 c4 d4 3e b0 0d 2e 3d 27 c3 9c be bc 1f a9 be
       0.4155641 0.042493522 -0.3061764 -0.33032024
0001f0 32 f5 1e 3d 28 80 bd 3d 37 d9 9e be 48 b5 84 bd
       0.038808055 0.092529595 -0.31025097 -0.06479889
000200 15 a8 ec 3e a4 94 9f bd f8 23 eb bc a1 85 97 bd
       0.46221986 -0.07792023 -0.028703675 -0.073985346
000210 59 be ff bd 3e 8f 18 3d 1f 0f 1b 3c 86 8a f6 bd
       -0.12487478 0.03724598 0.009464054 -0.1203814
000220 ba 74 b3 be 65 1e ff 3e eb 88 ec bd 85 53 0b bf
       -0.35049993 0.49827877 -0.115495525 -0.54424316
000230 83 1d 20 be 07 54 b2 be 9c 88 1c 3e bf 0c 69 3c
       -0.15636258 -0.34829733 0.15286487 0.01422423
000240 fa a8 ea 3d f1 19 c6 bd 09 ac ba 3c a7 9c d7 bd
       0.11458011 -0.09672917 0.02278711 -0.10527926
000250 c1 b3 7a 3e 55 95 b0 be 70 d9 cd ba c6 33 5f 3e
       0.24482633 -0.3448893 -0.001570506 0.21797094
000260 1f 2c f0 3d 60 91 e2 ba dd 30 fc 3e 05 61 c9 bd
       0.117271654 -0.0017285757 0.4925603 -0.09832958
000270 6f a9 b7 3d 44 43 e3 bd 86 a8 07 3f 3e 49 da 3b
       0.08967864 -0.11096814 0.5299152 0.006661563
000280 9d 6f 6c 3d 8c c9 02 be 3d a3 9c 3d e2 a7 3f bd
       0.05772363 -0.12772197 0.07648323 -0.046790965
000290 59 3c 23 be c4 ad 82 bd d8 f1 7e bc cf 1b 81 bd
       -0.1594099 -0.063807994 -0.01556059 -0.06304132
0002a0 e6 24 82 be a6 41 52 3e dc 32 98 3e 36 1f 27 bc
       -0.25418776 0.20532855 0.29726303 -0.010200312
0002b0 d4 90 04 3e 25 17 48 3e b1 1e 66 bc 42 eb 5b be
       0.12945873 0.19540079 -0.014045403 -0.21476462
0002c0 bc db a0 bc 47 cf 60 be 4b f7 1d 3e 15 61 c6 3e
       -0.019636028 -0.2195407 0.15426366 0.38745943
0002d0 48 f8 14 3f e0 79 b3 bd c2 5b 9d 3e 24 56 db be
       0.5819135 -0.0876348 0.30734068 -0.42839158
0002e0 80 62 10 3f 43 dc f2 3c 26 10 90 be fd a9 cc 3c
       0.564003 0.029646045 -0.2813732 0.0249834
0002f0 20 6b c7 3d b9 92 af bc dd f9 80 bd 42 16 e3 3d
       0.09737229 -0.021432268 -0.06297658 0.1108823
000300 0d b5 f4 bb e1 d7 cc bc 5e ec 26 3e a1 2a c1 bc
       -0.007467872 -0.025005283 0.16301104 -0.023579897
000310 19 6a 24 bd 7b 3e b0 be ff c6 22 be 4c f2 bb bd
       -0.040140245 -0.3442267 -0.15896223 -0.09177074
000320 eb fb ad bb 01 0c 83 3d 34 a3 86 bd 52 6f 0f 3d
       -0.005309572 0.06398774 -0.06574097 0.035018273
000330 de d6 b6 be a5 94 41 3e 3d 15 ba be b4 e7 13 be
       -0.35710806 0.1890436 -0.3634433 -0.14443856
000340 a3 32 c3 3e a7 45 2b 3e 8e 2f 8b bd e9 9a ad bd
       0.3812457 0.16725789 -0.0679618 -0.084768124
000350 c6 d3 c3 bd ed d8 bb be f7 9d 82 3e 55 9e d3 3d
       -0.09561877 -0.3668894 0.25511143 0.10332934
000360 e7 19 49 be f8 b9 9e be 07 e5 4e 3c 16 44 96 be
       -0.19638787 -0.31001258 0.012627847 -0.2934882
000370 4b f4 aa 3d 45 e4 ce bc 35 c0 20 3e 8c 5a 86 3d
       0.083473764 -0.025255332 0.15698321 0.06560239
000380 ee ac 28 3e 01 45 f3 3e 93 b4 01 bb 6b 8e b5 be
       0.16472217 0.47513583 -0.0019791469 -0.3546022
000390 50 a9 e2 be 2a 2b bd 3b 81 70 43 be 52 77 d7 3e
       -0.442698 0.005772968 -0.19085886 0.42083222
0003a0 f1 34 93 3d 8e 18 af bd da 6e a0 3e 73 e7 0e be
       0.07187832 -0.08549605 0.31334573 -0.13955478
0003b0 6b 0d 2e be 78 a7 91 3e 00 93 f5 3e 11 3d a7 3e
       -0.16997306 0.2844808 0.47963715 0.32663777
0003c0 ad cc b0 3d e5 eb ca 3c 7e de e5 bd 0f 42 c1 be
       0.08632789 0.024770686 -0.11224078 -0.3774571
0003d0 ad e6 79 3e 0e 10 b4 bd a6 b5 b6 3e 5c 58 79 be
       0.24404402 -0.08792125 0.35685462 -0.24350113
0003e0 7c 40 d1 be 14 99 d3 3c 2f a3 f7 3e 48 2d f3 3d
       -0.4086951 0.02582983 0.48366687 0.11873871
0003f0 de 0d 43 3d 16 73 dc 3d 6b 6b 08 be e2 9d 49 bd
       0.047620647 0.107641384 -0.13322227 -0.049222834

bias f4 [10]
000000 99 10 64 bd 57 a1 f6 3c 4a dc 16 bd 8a 28 08 3e
       -0.05567989 0.03010623 -0.036831178 0.13296714
000010 b9 54 86 3d 34 b6 b9 bd 69 ca 0f 3e 37 f0 65 3d
       0.06559128 -0.090679556 0.14042057 0.05613729
000020 f4 82 60 3b e9 d3 06 3e
       0.0034257742 0.13166775
